pth_checkpoints/checkpoint_DDQN_Duel.pth (torch_old, 28901 bytes, 7 tensors)

fc1.weight f4 [64, 37]
00000000: 0009 d2bc 1033 c43c 2ec6 cebd 1d80 8c3d
00000010: 8ae2 693d 6196 f3bc 0153 7b3d 4311 fc3d
00000020: 3220 423d 2aaf c83d 6b8d cdbd 752f 58bd
00000030: 9129 b4bd 6d7b 3fbe f268 1abe e60b 953c
00000040: 69ef b83b 0682 443d 004b 143e 5e40 ef3d
00000050: df4f ba3d 8d4f ba3d a806 f03d 6434 143e
00000060: fbce 193d 96f0 71bc 369b e63d 379e bcbd
00000070: c277 073d 4de3 8abd 810b 833e dda0 92be
00000080: 2aa3 63be 0aaa d1be cf24 bebf 2755 c23b
00000090: a861 a7bb d608 ba3e 45b9 14be b2e3 34be
000000a0: df50 59bd baa7 68bf 5b75 cebd f5ec f1bc
000000b0: a2ed b0bd 975b 90bd 657e 5cbd 2b01 35bd
000000c0: 34b6 0d3b 43d0 edbc 52c2 203e 6db9 9b3d
000000d0: 808e 143d be0c c13b 9d34 653d c701 213d
000000e0: a10d 6e3c cc17 06be 49d5 b8bc 19be cabd
000000f0: a35f 2b3d 357e a3bc 409c 30be aaee 9f3c
00000100: 63b3 1e3e 62d1 be3d c18e fb3e 47fb 8c3d
00000110: f7cc ff3c 7282 b43b 6c81 c8bc 8121 8fbe
00000120: 6c7e 1bbd 4ba5 e0bc 546c b33e 07f3 763d
00000130: ec85 dcbd 865d b1be 6761 00bf 5d9a e8bd
00000140: 569e 40be 49f6 fb3d 494d 483e 0aff d8be
00000150: a33f 2f3e 69b1 c1be b613 1cbe 17b5 7fbd
00000160: b245 a1be 41ad edbe 8729 793d da1a 603e
00000170: d117 9abd e470 4e3e fac2 27be 8938 4cbe
00000180: e6d4 d2bb 8b6c d13d 4d4a 11be e1d3 0f3d
00000190: 677c 403c de8a 9c3d a235 9dbd 4c09 75bd
000001a0: 7f60 76be 9722 7c3c dd2c 04be 7568 edbd
000001b0: de7d f73d 3f9e 243e 5a88 40bd e85c 0e3e
000001c0: 61ba 91bb d2b1 933d 5f09 da3d 92f4 18be
000001d0: 12ea cc3d ec7c 3abe 20c8 80bd 090c 193e
000001e0: 62dc 073f ad18 a33d 2347 f2bd b9f2 f13c
000001f0: 6595 14bd 141d a4bd 8c42 3a3c 68f5 b2bc
00000200: 6b34 8ebd 0d2d 4fbe 59d7 9cbe af2b d33d
00000210: 1d12 84bd a25e 8e3c ad70 013d 99f0 e4bc
00000220: 708b 513e 5770 97bd 806c 84bb 42b8 753d
00000230: 3023 cb3e 5cb8 853e b3b9 bb3d cb76 95bd
00000240: 55e8 cebd 4fcf aabd acf9 44bc 107e 543c
00000250: c1cf aa3c 4bee 15be 61a1 12be 1369 8abd
00000260: 6b8f 52bd 2ab8 8a3d bbea 823e 011e 58be
00000270: 7884 3f3e da8b 18bd 1f7d 3ebd 83f4 0fbd
00000280: 3565 1cbb 4d37 0bbc 9f08 13be 2bd3 67bd
00000290: e036 57bd e568 303d 7344 1abd 8a4b 963e
000002a0: 05b7 8bbd bf94 4bbd c0f5 c73d e7f0 2f3e
000002b0: cb91 b73e ee58 843e 8bb8 223c aceb 13be
000002c0: d1d8 86bd deb4 21bf f1c3 963d 9bf0 ebbd
000002d0: f89e b3bc 10f3 ae3e d254 b83e d5b4 5abc
000002e0: 403c cf3c 73d1 47bb c17e 7cbc 6e20 8f3c
000002f0: a08c 7f3d 6078 093d 7ae7 593e 71ca 4f3e
00000300: cc6d 03bd 08ff e1bc 4516 54bf 45c4 05bd
00000310: 22a8 35bd 21cb 133c e382 7cbc 8d2c 6c3d
00000320: b885 d53c 6940 193d 13b1 1b3c 46fd 8c3d
00000330: 26e0 3bbd 3e60 5f3c 4a58 7d3d 19cb 053e
00000340: 8310 413e 8a63 ffbc b41a 723e 5db5 6abe
00000350: 407d 17be eb6b debd 0bfb 96bf 4d13 d5bd
00000360: 417d b5bd 8bd4 873d 4d31 143e 1c13 5f3e
00000370: 8644 943c 81f0 323c 5235 c43d 1ec5 1e3d
00000380: 094e 393c b9c6 30be 5c4f 90be 4e38 053e
00000390: 3128 12be 2f54 3ebd 29fc 3c3d a44e d03d
000003a0: d735 c13d 1203 81bd d0f0 d93d 44cd b03d
000003b0: 3444 7c3e 6661 b7bd 6710 dbbd 5b1c 903c
000003c0: a540 5e3e 40d6 6c3e c8ae 12bd 3b7d 803d
000003d0: 4eab 333d 680b e4bd 8bda a53d fbe3 45be
000003e0: 84d0 463d b6be b8bd 55d7 013e e453 aabd
000003f0: a287 92bd 8f49 983d 52ec 233d cfcc 3abc
-0.025639057 0.02395013 -0.100963935 0.06860373 0.05710081 -0.029734792 0.061358456 0.1230798
0.047393985 0.09799035 -0.10036739 -0.052779634 -0.08796991 -0.18699427 -0.15079096 0.01819415
0.0056437743 0.047975563 0.14481735 0.11682199 0.090972655 0.09097204 0.117200196 0.1447311
0.037550908 -0.014766833 0.11260073 -0.092098646 0.033073194 -0.067816354 0.25594714 -0.28638354
-0.22230211 -0.40950042 -1.4854983 0.005930561 -0.005108077 0.36334866 -0.145238 -0.17664984
-0.05305564 -0.9088093 -0.100809775 -0.029531935 -0.08639075 -0.070487194 -0.053831477 -0.044190567
0.0021623494 -0.029029971 0.15699127 0.076037265 0.03626871 0.0058914116 0.05595838 0.039308336
0.014529617 -0.13095015 -0.02256264 -0.098995395 0.041839253 -0.019957641 -0.17247105 0.019522984
0.15498118 0.0931728 0.4913235 0.06883865 0.031225665 0.0055087144 -0.024475776 -0.2795525
-0.037962362 -0.027422568 0.35043585 0.060290363 -0.10767731 -0.34641665 -0.50148624 -0.113575675
-0.188104 0.123028345 0.19560732 -0.4238208 0.17114119 -0.37830666 -0.15241894 -0.06242856
-0.31498486 -0.46421245 0.06083062 0.21885243 -0.07524074 0.20160252 -0.16382971 -0.19943441
-0.006434071 0.10225781 -0.141885 0.035114173 0.01174841 0.07643674 -0.07676245 -0.05982332
-0.24060248 0.015389106 -0.12907739 -0.11592189 0.12084554 0.16075991 -0.047005035 0.13902628
-0.004447267 0.07211651 0.10646319 -0.14937046 0.10005583 -0.18211716 -0.06288171 0.14945997
0.5307065 0.07963691 -0.118299745 0.029534684 -0.036275286 -0.08013359 0.011368405 -0.021845534
-0.06943592 -0.2023203 -0.30633047 0.10311066 -0.06448767 0.017379109 0.031601597 -0.027946757
0.20463347 -0.07394474 -0.0040412545 0.059990175 0.39675283 0.26117218 0.09166279 -0.072980486
-0.101029076 -0.08340322 -0.012022417 0.012969509 0.020851018 -0.14641683 -0.14319374 -0.067583226
-0.051406305 0.06773408 0.2556971 -0.21105196 0.18702877 -0.037242748 -0.046506044 -0.035145294
-0.0023864035 -0.008497071 -0.14358757 -0.05659787 -0.052542567 0.043068785 -0.037662935 0.29354507
-0.068220176 -0.049702402 0.0976367 0.1718174 0.3585342 0.25849098 0.009931694 -0.1444537
-0.06584323 -0.63166606 0.073615916 -0.11520501 -0.021926388 0.34169817 0.36002213 -0.013348778
0.025297284 -0.0030489832 -0.01541108 0.017471518 0.06238997 0.033562064 0.21279708 0.20292069
-0.032087132 -0.027587429 -0.8284648 -0.03265788 -0.044349797 0.009020598 -0.015412065 0.057659674
0.026064739 0.037414942 0.009502667 0.068842456 -0.04586806 0.013633786 0.061851777 0.13065757
0.18853955 -0.031175394 0.23642999 -0.22920747 -0.14793873 -0.108604275 -1.1795362 -0.10404072
-0.08861781 0.06632336 0.14471932 0.21784633 0.01809908 0.010921598 0.095804825 0.038762204
0.011310109 -0.17263307 -0.28185546 0.1300976 -0.14273144 -0.046467002 0.046138916 0.101712495
0.09434097 -0.06299414 0.106416345 0.08632901 0.24635392 -0.08954124 -0.10696488 0.017591646
0.21704347 0.23128605 -0.035811216 0.06273886 0.04386454 -0.11134988 0.080983244 -0.19325249
0.0485387 -0.0902075 0.12679799 -0.08316782 -0.07154776 0.07435905 0.040020294 -0.011401369

fc1.bias f4 [64]
00000000: 9211 313e 0067 1bbd 2820 febd 6326 2abd
00000010: 72d1 433e 71e8 123c 6380 57bd 2754 603d
00000020: 11fc e23c 78a8 31be 81f9 ee3d 1af5 2c3e
00000030: a83e 9a3d 5dbf 743d 8618 a2bd 7c01 c0bd
00000040: 5fd4 10bd bbf4 86bd 839b 49bb 0113 52be
00000050: 8e0b 00be 1d80 b7bc e87d ebbc 9f97 8dbd
00000060: c3b9 3cbd 304f 503e 5ea5 97bc 79f4 b2bd
00000070: c425 163e 445c bc3d 0f28 bfbd 7aaf 46be
00000080: 8130 163e c4eb 11bd 1f1b b0bd 3949 9e3d
00000090: 10b2 a4bd 752f 113d baeb 1dbd 82ec 76bd
000000a0: ebbf c4bd 29b7 fa3c 9b11 1bbe 24a4 1c3e
000000b0: 8539 503c b9c1 46bd ee96 97bc 06f1 41bd
000000c0: 9ae8 b5bd cea3 aebb 19eb 00be 6bb0 dabc
000000d0: 42a9 273d c701 eebd 32c1 4dbe 6ad7 86bd
000000e0: f094 bc3d 2139 dfbd 2a14 f1bd 6315 d8bd
000000f0: 590c 253b ec35 56bc af3b d13d 22f5 8d3d
0.17291859 -0.037940025 -0.12408477 -0.041540515 0.19122866 0.008966551 -0.052612673 0.054767754
0.027708085 -0.17349422 0.11668683 0.16890374 0.07531482 0.05975281 -0.07914834 -0.09375283
-0.035358783 -0.065896474 -0.0030762858 -0.20515062 -0.12504408 -0.022399956 -0.02874656 -0.06913685
-0.046075594 0.20342708 -0.01851147 -0.08738036 0.14662844 0.09197286 -0.093338124 -0.19402876
0.1466694 -0.035625234 -0.08598923 0.0772881 -0.08041775 0.03544565 -0.038554884 -0.060284145
-0.09606918 0.030604916 -0.15143435 0.1529699 0.012709026 -0.048524592 -0.018504586 -0.047349
-0.08882256 -0.0053295856 -0.12589683 -0.02669545 0.0409329 -0.11621433 -0.2009323 -0.06584056
0.09208095 -0.10899568 -0.11771424 -0.10550954 0.0025184362 -0.013074379 0.10216462 0.06931521

fc2.weight f4 [64, 64]
00000000: c2ea 273e 64f1 53be 4a94 403e 001d ee3d
00000010: 8d08 813b fe49 58bd 5980 c8bd d4e8 1abe
00000020: 2831 113e 5d69 38be a85e 073e c8f3 9ebd
00000030: 2514 fbbd 3859 253e df79 86be c24d 74be
00000040: 9754 2cbe 2070 9fbc 3bf6 65be efb3 8bbc
00000050: a85e 90bd bd81 3ebd fcaa e5bd 7f27 95be
00000060: 09f8 4cbe 5fc9 d73c 7852 423e 52b9 273d
00000070: 9bb9 e5bb ccac 1f3e 1f77 ae3d d35e f3bd
00000080: d624 083d bd2c 02bf 3b9d 1ebd 735e 6cbe
00000090: 008c 69be 4a29 f13d 17a1 e53d 93e8 38be
000000a0: f5f4 6fbe fc87 0fbd 9347 14bd 3137 0dbe
000000b0: 0ebc a5bc 3706 50be b63b 6bbb 3f41 b0bc
000000c0: ef12 41be c938 b1bd 38ad 9e3d 8eb6 013e
000000d0: f769 4fbe bf36 98be b270 9f3e f044 603d
000000e0: 0914 7fbe 7762 0cbe 3277 e1bd 99da 12be
000000f0: 6367 853d 7dae 863d 6200 d9bd 323e 1abe
00000100: 459f 6d3e d6ac 5b3e a324 bf3e 2494 62bd
00000110: b24b fe3d da4f b83d b248 10be b71f d6bc
00000120: eee1 cb3c 9462 69be ea77 4b3d 99f6 9cbd
00000130: cf79 61bc 7d17 19bc dd3e 093d aa8d 2e3e
00000140: e3e5 dc3d 3afc 21be 0da7 8ebe da6e 7a3d
00000150: fcad 79be 55ca 4fbd 058d 683e eead 20be
00000160: a4fd c6bd 8b45 d73d 8d5f 513e 7cb0 54be
00000170: 16bd 5e3e d015 a7be 11cd 64bb 2e7c 78be
00000180: 0d5d 9fbd 0acb 99bb 6cb8 743d d8e5 b1bb
00000190: 38be 3a3d 45f8 b23d 892d b53d fe55 a03d
000001a0: 6381 7bbe a55c 6abe 8212 e6bd 492c 193d
000001b0: 1ce2 70be 19e6 26be fc13 0fbe e940 b6bd
000001c0: f03f 22bc 7d13 1fbe c6d5 dbbd 1b47 d4bd
000001d0: 3628 bebd 0228 ce3c d6a2 153e e9e4 b93a
000001e0: 7fbd dabe 3d84 22bd ce6b 963c b877 2fbe
000001f0: f8e7 593d 8545 523d 809e 123d b63b 07be
00000200: 8078 72be 119e 0b3c b5bb d8bb c075 04be
00000210: 9738 033e 6a64 863d d123 e4bd b8ab cdbd
00000220: 30b9 0c3d bead dabd 9457 1bbd 67cb b03c
00000230: 4e95 123e b056 28be 34c1 54be 946e d93d
00000240: c4b1 9bbe d55c cd3d 72ae 613d 108d b5be
00000250: f679 a8be 86a6 823d e49a b5bd 935a 363e
00000260: 6938 b6bd b076 c2bb e415 753d 213f 593e
00000270: ea11 8cbe af9c e9bc 02ff 99be 9add 6fbe
00000280: ced7 00bf fd0f 7bbe 2c39 f7be b73f ecbc
00000290: 44fb e63d b01c 2e3e 2e62 573e 0fb4 dbbe
000002a0: 1ead 0b3e 0fb7 fbbd 0edf 0fbd cb95 ddbd
000002b0: 8661 c1bd dbe3 83be eeab 43be 54ca cabd
000002c0: 8a92 88be 10df 2bbf 0805 85be ca48 f03c
000002d0: f86f a7be 3355 963e 20df e2be 4b1b 57be
000002e0: 45a6 033c d8d5 5fbe 6b5a 243e bdfc edbd
000002f0: ff98 a4bd 34a7 f73d 89c8 663e 762a d8bc
00000300: 1657 ac3c e4ff b4bd 85db ca3c c127 10bd
00000310: 11e9 88bc 5b10 3ebe e94b 1abd da68 6d3d
00000320: e5e8 8ebd feea 153d dd04 fabe 657e 21bd
00000330: 86f4 adbc b617 c0bb f6e9 50bd 1cb2 e1bd
00000340: 9661 a4bd 142f acbd 211a 52bc b210 8dbe
00000350: 4f4c 843c 6b9c b53d 9adb 92bd 484c 62be
00000360: d1d7 22bc bc59 8b3d fce1 b43d a754 0dbd
00000370: 703f 8b3c dfee 2fbe ede5 033e 8e7f 28bd
00000380: 315e 65bd 9f4c a23d 934c 103f dbb8 9a3d
00000390: ab95 e3bd 0f65 55be 9a60 353e e087 42bd
000003a0: 304b 583e 357b bf3d 43c0 d03c de93 98bd
000003b0: 4e9e cf3d f56e 1fbd d977 abbb 38bc 2ebe
000003c0: 0898 4fbd 6752 babd 6560 d2bd 0c5d 9bbd
000003d0: aeff 83bd 0f8f 7cbe 91b7 0d3c 98f7 813c
000003e0: cbcf 78bd 96ba 3cbd a2d3 20be 5856 3f3e
000003f0: 0046 97be a959 823e eb7e e03c 4608 19be
0.16398147 -0.20697552 0.18806568 0.11626625 0.003937787 -0.05280494 -0.097901054 -0.1512788
0.14178908 -0.18008943 0.13219702 -0.07761341 -0.12259702 0.16147316 -0.26264855 -0.23857787
-0.16829143 -0.019462645 -0.2245721 -0.017053572 -0.07049304 -0.046510447 -0.11214253 -0.29131696
-0.20016493 0.026341138 0.18976772 0.04094822 -0.0070106513 0.1559326 0.08518814 -0.11883321
0.033238254 -0.50849515 -0.038724165 -0.23082905 -0.22807312 0.117754534 0.11212366 -0.1805747
-0.23433287 -0.035041794 -0.03620107 -0.13790585 -0.020231273 -0.20314871 -0.0035893745 -0.021515487
-0.18854879 -0.08653409 0.077478826 0.12667295 -0.20255266 -0.29729268 0.31140667 0.054753244
-0.24909987 -0.13709436 -0.11009063 -0.14341201 0.0651386 0.0657625 -0.10595776 -0.15062788
0.23205288 0.2145265 0.3733264 -0.05531706 0.124167815 0.089996055 -0.14090231 -0.02613817
0.024888005 -0.22791511 0.049674906 -0.07664222 -0.013761952 -0.009343979 0.033507217 0.17046228
0.10786035 -0.15818873 -0.27861825 0.061140873 -0.24382776 -0.05073007 0.22710045 -0.15691349
-0.09716347 0.10511311 0.20446606 -0.20770448 0.21751818 -0.3263383 -0.0034912268 -0.24266121
-0.0778142 -0.0046933936 0.05974619 -0.005429011 0.045591563 0.0873876 0.08846576 0.07828902
-0.24561076 -0.22886904 -0.11233999 0.03739575 -0.23523754 -0.16298713 -0.13972467 -0.088990994
-0.009902939 -0.15534778 -0.107341334 -0.10365125 -0.092850134 0.025165562 0.14612898 0.00141826
-0.427227 -0.039676894 0.018361952 -0.17135513 0.05319974 0.05133583 0.03579569 -0.13206372
-0.2367878 0.008521573 -0.0066141733 -0.12935543 0.12814556 0.06562121 -0.11139644 -0.100425184
0.034356296 -0.1067767 -0.037925318 0.021581365 0.14314768 -0.16439319 -0.20776826 0.10616794
-0.30409062 0.10027472 0.055098005 -0.35459185 -0.3290555 0.06379418 -0.08867434 0.17807989
-0.08897478 -0.005934559 0.05983533 0.21215488 -0.27357417 -0.028517095 -0.30077368 -0.23424378
-0.5032929 -0.24517818 -0.48285806 -0.028838975 0.11278394 0.17003131 0.21033546 -0.4291081
0.13640258 -0.12290775 -0.03512483 -0.10819586 -0.09442429 -0.25759777 -0.19108555 -0.09901872
-0.266743 -0.6713724 -0.259804 0.029331584 -0.32702613 0.29361877 -0.44310856 -0.21006505
0.008035247 -0.21858919 0.16050117 -0.116204716 -0.08036994 0.12092438 0.22537436 -0.026387434
0.02103762 -0.0883787 0.024762878 -0.035194162 -0.016712697 -0.18560927 -0.03767005 0.057961322
-0.06978015 0.03660106 -0.48831835 -0.03942718 -0.021234762 -0.0058622016 -0.051004373 -0.110203
-0.080264255 -0.08407417 -0.012823612 -0.275518 0.016149668 0.08867725 -0.07170792 -0.22099411
-0.00993915 0.06804225 0.088321656 -0.03450456 0.016998023 -0.17180966 0.12880678 -0.04113727
-0.05599803 0.079247706 0.56366843 0.0755479 -0.11112531 -0.20839332 0.17712632 -0.04749286
0.21122432 0.09349672 0.025482303 -0.074500784 0.10137616 -0.038924176 -0.005232793 -0.17063987
-0.050682098 -0.09097748 -0.10272292 -0.07586107 -0.064452514 -0.24663948 0.008649723 0.015865132
-0.06074504 -0.04607638 -0.15705732 0.18685281 -0.29545593 0.2545903 0.02740427 -0.14944562

fc2.bias f4 [64]
00000000: 2a19 bcbd 63d8 b5bd a26f 1d3c 6f8a 6fbb
00000010: 9f9d 0d3d e930 38be e734 9ebd a274 e83c
00000020: 854b 723e 74ed 053e 9923 09be ab7f c93d
00000030: c075 d93c e3bf 96bc a5f9 9bbc be66 3a3d
00000040: cf07 69bc c8ec 78bd 0075 0cbd 9240 f93d
00000050: 7a2e 413d 570e a83e a219 8f3c ecc1 0abe
00000060: bc97 40bd 86ff 00be b39a 943d 1634 37be
00000070: c3fa 2dbe 68d4 253d d2c7 4ebd 3236 c3bc
00000080: 6036 6a3c 4e17 ac3d 97eb 4bbc c13d 1bbe
00000090: 8ec4 96bd a7e4 36be 03b8 3ebd 66b6 a3bd
000000a0: 1722 53bd 982f 8a3d e3b9 a43e bc3f 17bd
000000b0: 0815 8ebd c26e e8bd 6af6 9ebd b184 0cbe
000000c0: e29e b73d 6d38 0fbe bef5 82bd ef55 5c3d
000000d0: f4f1 afbd 4456 cbbd 2851 793d b96b ce3b
000000e0: a07e 63be a770 e1bd 61a0 16bd a8db 04bd
000000f0: 6613 3cbc ffac d13d 8e24 813d ee51 0cbe
-0.09184487 -0.08879163 0.009609135 -0.0036551019 0.034574147 -0.17987408 -0.07724934 0.028375927
0.23661621 0.13078862 -0.13392486 0.09838804 0.026545405 -0.018402046 -0.019039938 0.04550814
-0.014223053 -0.060772687 -0.034291267 0.12170519 0.047163464 0.3282344 0.017468277 -0.13550538
-0.047019705 -0.12597474 0.07256069 -0.17890963 -0.16990189 0.04048577 -0.050483532 -0.023829553
0.014295191 0.084028825 -0.012446306 -0.15160276 -0.073617086 -0.17860661 -0.046562206 -0.07993774
-0.051546182 0.06747359 0.3217307 -0.036926016 -0.06937605 -0.113492504 -0.077618435 -0.13722493
0.08965851 -0.13986368 -0.06394528 0.05379289 -0.08591071 -0.09928563 0.060868412 0.0062994626
-0.22216272 -0.11007815 -0.036774043 -0.032436043 -0.011479234 0.102380745 0.063058004 -0.13703129

fc3.weight f4 [4, 64]
00000000: 017d 9dbb 07d0 313e 47ce c9bc df6a 2a3e
00000010: b1b6 b53d d813 433e 6118 713d 4cd7 84be
00000020: 0c88 d23d 3710 653e 89b1 28bd efbc 483e
00000030: 0827 afbe 1012 843d 67cd 0abe e5c8 40be
00000040: 48c9 d03c 64d5 d9bc 90ee 393e 96fa 883e
00000050: f2a3 0a3d ad24 d13d e93d bab9 9802 89be
00000060: 3c67 ef3d 4e3a 3bbe 4217 fcbe 647d 7dbe
00000070: d2c2 ecbe 82da 233e 3582 5fbe ebd9 e03d
00000080: 80f9 c93d 5682 383d 6e24 1a3e c78e 01be
00000090: aa58 913e bdce 0abd 46da 42bb 7119 363e
000000a0: f7b1 0a3e 2fc3 493e b323 b23d e1c5 333e
000000b0: 14ef adbc 4c1e debc e621 86bd 3c06 743e
000000c0: 030d dfbd b799 29ba bc53 c3bd 5804 e43d
000000d0: 3e35 5b3e 227c b33b 059f 0e3c 3942 b9bc
000000e0: 5dd5 fd3c d197 973e 4cb4 e0bd cb07 163f
000000f0: ca54 03be 2d45 5b3e f647 8a3d ae1a a2be
00000100: 5d71 2e3e e8b4 883d 0fd0 f43e bcc3 8e3e
00000110: feb1 b2bd f103 40be c3c1 e6bc 6e3a c13d
00000120: 5938 c3bc 4365 dc3d 6aa3 c1bc 1b5c bebd
00000130: c5f6 d23c 90a8 653c 46fc d7ba dd19 63bc
00000140: 8a3b fabc 2493 d43d 45df 0cbf 8eef f13d
00000150: 95ea a33d ac37 c63d 00a4 893d 4113 05be
00000160: 8b36 223e 906e 2bbc 3cb2 723e 2a91 053f
00000170: fafb 4f3e 831b 4b3e fff7 e9bb d84c 343e
00000180: 48b8 883d 4e80 093e 5c08 053e 08b1 bbbd
00000190: 02c7 7c3e 6111 e1be 22e7 1a3e 7da5 88bd
000001a0: f9d9 103d 241b 013e 30c2 233d 8617 b43d
000001b0: 1ff5 24be 25f0 673e 3258 473d 38e9 ce3d
000001c0: 1354 c43d 41e8 823e b4b0 c4bd 59db 8c3e
000001d0: 3919 073e f1f9 973c 8f54 8d3d c617 173e
000001e0: 09ac 83bc 5f7e c4be ee9c 7abd 4b60 453e
000001f0: 2b07 ebbd d1b4 f83d b9bf 5e3d 3690 8f3e
00000200: b348 0dbe 2243 e9bd 680b 0a3d 3cf8 f93e
00000210: 333a a53d 1793 653d f737 213e 7234 563d
00000220: b2e1 973d a755 823d 1c16 d9bd 81c6 443d
00000230: 28fa 613e afde 483e 8b17 7b3e 7511 36bd
00000240: 34fa c53e 14fb a8be 1130 2b3e e139 a7bd
00000250: 0641 dcbe 680c c83d e8a8 a4bd c86a 0f3e
00000260: 457a bf3d 5aef 1ebe be94 6f3c 84fc f23d
00000270: e209 963e 4b75 c23d 7441 07be e251 9bbd
00000280: 8962 f73c e2de 023e 4bf3 373e b837 773e
00000290: ae83 08be 00c4 94bd 5829 f3bd aa29 8a3e
000002a0: 8758 6e3c 17d5 593d 3c9c f13d 1052 3a3e
000002b0: 1f5f c43d ee13 b5bc c1e1 403e 7d3c 8a3d
000002c0: 804c aa3e 101a a5bd 3eb9 313e e9ce f33e
000002d0: e625 c43e 034d ff3d ba7e 3c3e f033 e33d
000002e0: a2c8 bfbe 47d3 d43d 0095 b3bb 9515 413e
000002f0: 9dcf 81bd 02a2 803d c3d6 69be 54ce 51be
00000300: e10e 3f3e 5c50 33be 540d 673e 5d5e c2be
00000310: 6233 f8be dcef 973d d507 dcbd dce8 d83d
00000320: b851 203d 0cae 413e 6230 113e cc10 833e
00000330: 8979 783e 7503 053e f4a7 9f3e b838 073e
00000340: be45 65be d205 a83e 40cd 583e 1482 eb3c
00000350: 9bb3 00bc f2ce 303e b902 e4bb 2056 013e
00000360: acd2 2c3e 720b 3d3e f180 febd d3d1 ce3d
00000370: e809 e53e 2554 f0bd ec44 153e 5de1 773d
00000380: bc95 043e 1460 9b3e 2454 183c f43a 89ba
00000390: 2391 043e a30f a53e e66e 3bbe 28f2 e63d
000003a0: 36c9 363e 6955 ab3e 9eae e73d 9d16 6dbe
000003b0: f46e d13d 5af7 d6bd c0af 143e bd9e d93e
000003c0: 990a 8a3d 048d 513e fbb5 f13d 3bbf 69be
000003d0: b005 89bd d836 45be c3c9 103e beb9 9d3d
000003e0: 2df0 5cbe 077a 98bd 5999 17be 9f18 8fbe
000003f0: 8e28 20be 2f04 a9bd 498f e2bc ae0f 04be
-0.0048061614 0.17364512 -0.024634494 0.1664233 0.08872736 0.19050539 0.05886114 -0.25945508
0.10279855 0.22369467 -0.041184936 0.19603322 -0.34209466 0.06448758 -0.13554917 -0.18826635
0.025486603 -0.02659101 0.1815741 0.26753682 0.033847757 0.102120735 -0.0003552281 -0.2675979
0.11689612 -0.1828396 -0.49236494 -0.24754864 -0.46242386 0.16001323 -0.21827014 0.109790646
0.098620415 0.045046173 0.1505296 -0.12652121 0.28387958 -0.033888567 -0.0029732152 0.17783143
0.1354445 0.19703363 0.08698215 0.17555954 -0.021232165 -0.027114056 -0.06549434 0.23830503
-0.10891154 -0.00064697437 -0.095374554 0.11133641 0.21407029 0.0054774443 0.008704905 -0.022614585
0.030985529 0.29608014 -0.10971889 0.5860564 -0.12825313 0.21413107 0.06752007 -0.3166098
0.17035432 0.0667513 0.47814986 0.27883708 -0.087253556 -0.18751504 -0.028168565 0.09434973
-0.02383058 0.10761502 -0.023637492 -0.092949115 0.025752435 0.014017239 -0.0016478382 -0.013861147
-0.030545969 0.10379627 -0.5502818 0.118132696 0.08003727 0.09678587 0.06720734 -0.12995626
0.15841119 -0.010463372 0.23700804 0.5217463 0.20310965 0.19834714 -0.007140159 0.17607439
0.06675774 0.1342785 0.1299147 -0.091646254 0.2468529 -0.43958572 0.15127233 -0.066721894
0.035364125 0.1260801 0.039980114 0.08793549 -0.16109131 0.22650202 0.048668094 0.10103077
0.095863484 0.2556782 -0.09604016 0.275111 0.13193215 0.018551799 0.06900894 0.14755163
-0.016073244 -0.38377663 -0.061184816 0.19275014 -0.114759766 0.12143863 0.05438206 0.28039712
-0.13797264 -0.11389758 0.033702284 0.488222 0.08067741 0.05604848 0.15744005 0.05229611
0.07416095 0.06363993 -0.1059992 0.04804087 0.22068083 0.19616197 0.245207 -0.044450242
0.38667452 -0.33004057 0.16717555 -0.081653364 -0.4301836 0.09767991 -0.08040029 0.14005578
0.09349493 -0.15520993 0.014622865 0.1186457 0.29304415 0.09495028 -0.13208562 -0.07583977
0.030198352 0.12780336 0.17963903 0.24142349 -0.13331482 -0.072639465 -0.1187312 0.26984912
0.014547474 0.053181734 0.117973775 0.18195367 0.095884554 -0.02210423 0.18836118 0.067498185
0.3326149 -0.08061612 0.1735582 0.47618797 0.38310164 0.12465861 0.18407717 0.11093891
-0.37457758 0.103918605 -0.0054804087 0.18855889 -0.06338427 0.062809005 -0.22835831 -0.20488864
0.1865802 -0.17511123 0.22563678 -0.37962618 -0.48476702 0.074187964 -0.10743681 0.105912894
0.039140433 0.1891405 0.14178613 0.25598752 0.24265112 0.129896 0.31182826 0.1320523
-0.22389886 0.3281694 0.21172047 0.02874855 -0.007855321 0.17266443 -0.0069583324 0.1263051
0.1687724 0.18461397 -0.12426937 0.100986145 0.4473412 -0.11734799 0.14577073 0.060517658
0.12947744 0.3034674 0.009297404 -0.001046984 0.1294599 0.32238492 -0.18304023 0.112766564
0.17850193 0.334636 0.113126025 -0.23153158 0.10226241 -0.10496397 0.14520168 0.4250392
0.067403026 0.2046395 0.11802288 -0.22826855 -0.06690538 -0.19259202 0.14139466 0.07701443
-0.21575995 -0.0744515 -0.14804591 -0.27948472 -0.1564047 -0.08252751 -0.027656214 -0.12896606

fc3.bias f4 [4]
00000000: e1ee 573e 7ae4 473e 3e1b 1d3e d0fc ca3d
0.21087219 0.1952075 0.15342423 0.099115014

state_value.weight f4 [1, 64]
00000000: a0be 633c ede1 76be 0970 bf3e 3f84 623e
00000010: f071 afbe c155 063c 81e1 4dbe b213 13bd
00000020: 4810 0f3e 135e 203e d38d cabd 807c ca3e
00000030: 8749 1ebc eb1d 443e f65b ba3e 4530 3e3d
00000040: 8f75 68be 75f4 6a3e de50 62be afcf f63d
00000050: 59e6 a7bd acad 023e 7337 b63d 0db4 15be
00000060: 3cca c83e 6ed0 513e 5864 c5be 94a1 c73e
00000070: 8728 213f f7e2 763d d821 77be 6283 e33d
00000080: b0e8 4e3e c965 973e 65d0 8c3e eddc d9bc
00000090: 92c9 aa3e c1ce a4be bd07 8fbe 4948 e93d
000000a0: a441 483e 7e76 fb3d 9d9e 323e bb44 eb3d
000000b0: 657b b1bd c584 e3bb ebb6 063d 188d 103f
000000c0: f527 4a3e 0da2 8b3e e250 413e 5916 7c3e
000000d0: 9e19 0f3e 2ab1 07bd 1e1b b13d 74f6 cc3c
000000e0: a843 2abe 7cbc c6be cc43 aabd 0a74 293c
000000f0: 665e 36be 91f3 cc3d 0bcd 40be a9ff c9be
0.013900429 -0.24109621 0.37390164 0.2212076 -0.34266615 0.008199156 -0.20105554 -0.035907455
0.13971055 0.15660886 -0.09890332 0.3954811 -0.009661085 0.19152038 0.36398286 0.046432752
-0.22701095 0.22944815 -0.22101161 0.12051331 -0.08198232 0.12761563 0.08897295 -0.14619465
0.39216793 0.20489666 -0.3855312 0.38990462 0.62952465 0.060275044 -0.24134004 0.11109044
0.2020595 0.29569843 0.27502742 -0.026594603 0.3335691 -0.3218899 -0.2793559 0.113907404
0.1955629 0.1227846 0.17443319 0.11487719 -0.08666114 -0.0069433176 0.032889288 0.5646529
0.19741805 0.27272072 0.1887851 0.246179 0.13974616 -0.03312794 0.0864775 0.025019862
-0.16627371 -0.38815677 -0.083137125 0.010342607 -0.17809448 0.10007394 -0.18828218 -0.39452866
