pth_checkpoints/checkpoint_DDQN.pth (torch_old, 28901 bytes, 7 tensors)

fc1.weight f4 [64, 37]
000000 98 17 b0 bd 44 b5 b7 bc 48 66 81 bd 9b f0 0a be
       -0.0859825 -0.022425301 -0.06318337 -0.13568346
000010 86 7c a0 bd a6 c8 52 ba 6d f0 8e bd 6d 2d 44 3e
       -0.07836251 -0.0008040763 -0.06979451 0.19157954
000020 aa 92 4d be ab 2a 30 bd b1 ee 7f 3d ca 61 b0 be
       -0.20075479 -0.04300944 0.062483493 -0.34449607
000030 ac e3 28 be c8 98 b8 be 86 32 83 bf 26 aa 1e 3e
       -0.164931 -0.36054063 -1.0249794 0.15494594
000040 33 83 a7 bd 31 f9 3f 3d 56 bf f3 be b1 27 07 3d
       -0.08179321 0.046868507 -0.47606915 0.032996837
000050 2d 82 c1 3d ae 4c 1c 3d 32 bd 3a be 32 92 c7 bd
       0.09448657 0.038159065 -0.18236235 -0.097446814
000060 43 03 bd be f0 a7 1d bd d1 07 b1 bd 02 c2 8d 3b
       -0.3691655 -0.038490236 -0.08644069 0.004326106
000070 9f c0 e3 bd b6 12 43 be f9 e7 f1 bd 50 6e 91 3d
       -0.11120724 -0.19050106 -0.118118234 0.071011186
000080 3c 37 9b 3a d4 e7 6d be 42 18 f6 be 9c 17 03 be
       0.0011842023 -0.23232967 -0.48065382 -0.12801975
000090 73 1e d9 bc cd ea ff bc 04 95 30 3e 3c e9 b5 3c
       -0.026503777 -0.031239891 0.17244345 0.022205941
0000a0 a0 8c b0 3d 28 57 f4 bd 3b 4a 64 3e 11 57 94 be
       0.08620572 -0.11930686 0.22293942 -0.28972676
0000b0 42 dd aa be 06 0a d0 be 62 c0 69 bf 9b 5f 1a 3d
       -0.3337193 -0.40632647 -0.9130918 0.037688833
0000c0 aa a9 33 3d c2 9c b8 bc c5 ca 84 bb 60 f0 20 3e
       0.043862976 -0.022535685 -0.0040524923 0.15716696
0000d0 23 c2 b5 3d 61 e9 0a bc 4a c0 45 bd 56 ed 7d 3e
       0.08874919 -0.008478493 -0.048279084 0.24797568
0000e0 77 12 3c 3e c5 a0 42 be d8 9f e5 bd 6d 3d 08 3d
       0.18366419 -0.19006641 -0.112121284 0.033261705
0000f0 4b fa 11 3d 38 4d a2 3e 9a ab 91 bd 7a 4e 81 3d
       0.03563909 0.31699538 -0.071128085 0.06313796
000100 11 e3 bc 3d ca d6 d9 bd 61 e4 e3 3d 8d b7 b7 3b
       0.09222997 -0.10636671 0.11127544 0.0056065978
000110 ee 50 ff 3d 2d ed aa 3d 74 93 f2 3d 46 be 97 bd
       0.12466608 0.08346019 0.11844531 -0.07409339
000120 18 73 47 3a 14 30 e9 3b 87 a4 cc be b9 eb bd 3e
       0.0007608398 0.007116327 -0.39969274 0.37093905
000130 84 76 6f be ef bf 94 be e0 60 8f 3e 60 ee 3f 3d
       -0.23385054 -0.29052684 0.28003597 0.04685819
000140 06 2f d8 be f0 d6 1f 3e b4 81 b9 bd d0 6f 61 be
       -0.42223376 0.15609336 -0.09057942 -0.2201531
000150 7f 6f 10 3e 8c fe 11 be 3d 8b 82 bd c2 7b 20 be
       0.14105032 -0.14257258 -0.06374214 -0.1567221
000160 b7 a0 cf be bb c9 c0 be 36 a5 44 be fa ff 1b 3e
       -0.40552303 -0.37653908 -0.19203648 0.15234366
000170 b2 d5 cd 3d d0 0b b4 bd a5 03 2a bd 13 a6 cd 3d
       0.10050525 -0.087913156 -0.041507382 0.10041442
000180 80 66 8d bd bf e2 5c be b1 7e 75 be 9d 0f 91 be
       -0.06904316 -0.21570872 -0.2397411 -0.28332224
000190 1c 91 25 3e 3d 51 25 3e 05 14 3c bd d7 57 2e 3e
       0.16168636 0.16144271 -0.04591753 0.17025696
0001a0 16 45 b1 bd ab 8c 5d be 1d 32 ff bd 05 7d 0b bf
       -0.08655755 -0.21635692 -0.1246073 -0.5448764
0001b0 a1 17 cf 3c f3 8a 7e 3d 2e 42 c7 bc 80 ef 40 3e
       0.025279822 0.06214423 -0.02432355 0.18841362
0001c0 e8 90 63 be 0a 0b b1 3d 82 81 ec 3d ac 27 32 be
       -0.22223246 0.08644684 0.11548139 -0.17397946
0001d0 4f 0d bb bd 2e 02 26 be 4b 12 96 3e 2d 31 1a be
       -0.09133398 -0.16211769 0.2931083 -0.15057822
0001e0 77 0e 07 bf 9d c9 9e 3d 02 ee d3 bd a7 24 bc bc
       -0.52756447 0.077532984 -0.10348131 -0.022966696
0001f0 14 06 0c be 07 42 0c be 26 45 6c 3d fb 31 63 be
       -0.13674194 -0.13697062 0.057683133 -0.22187035
000200 26 9e 16 be 16 09 f4 bd 78 62 ae be 73 21 32 3d
       -0.14708766 -0.119157955 -0.340595 0.04348893
000210 07 26 e0 bb 2a bd f5 bc 19 c0 33 bc 2e e8 9c be
       -0.0068404707 -0.029997427 -0.010971093 -0.3064589
000220 de 09 05 bd f7 22 0b 3d 70 01 4c 3e 77 4a 1e be
       -0.032480113 0.033968892 0.19922423 -0.15458094
000230 52 4a 53 be 17 7d 6a 3e 17 6a 2b be f2 62 19 3e
       -0.2063382 0.2289928 -0.16739689 0.14979151
000240 9e 07 f3 be ff a2 63 be 9d 65 30 3e 82 fd ae 3c
       -0.4746675 -0.22230147 0.17226262 0.021361116
000250 d5 a6 3c bd 84 d1 ce bd 91 e4 cb bd a7 d8 9d bd
       -0.04605754 -0.10098556 -0.09955705 -0.07707339
000260 7e 6a 8d bd 30 ff c9 3e d3 45 f9 be 72 43 1c bf
       -0.069050774 0.39452505 -0.48686084 -0.61040413
000270 f7 2f 12 bf 24 aa e5 bf c3 38 13 bc 0c 58 92 bc
       -0.5710444 -1.7942548 -0.008985701 -0.01786425
000280 53 9d 98 3c b2 e6 88 bd ba d2 eb bd 19 46 12 be
       0.018629706 -0.06684627 -0.11514802 -0.14284553
000290 61 57 a6 3b 61 0f 6b 3d 69 cc 26 3d 50 61 d7 3d
       0.0050763343 0.057387713 0.040722284 0.10516608
0002a0 86 a2 aa 3a e0 f6 4e 3c 38 55 a7 3d 29 8e 0b bd
       0.0013018406 0.012632102 0.08170551 -0.03407112
0002b0 29 c6 14 3e 05 f8 86 3c e1 14 5e 3d 57 68 0d 3e
       0.14528717 0.016475687 0.05421913 0.13809334
0002c0 54 dd 2a 3e cb 32 3a 3d 68 0e 0e 3e e2 64 f4 bb
       0.16685992 0.045458596 0.13872683 -0.007458315
0002d0 ea 8c 60 3d eb d9 21 3e 1b fb 4e 3e 9d 9e 24 bd
       0.054821886 0.15805785 0.20212977 -0.040190328
0002e0 ae 9f d7 ba b2 25 74 3c d7 42 a8 bd b4 ea 7b 3d
       -0.0016450786 0.014901565 -0.08215874 0.061503127
0002f0 ff f9 90 bd 32 e8 c4 3d b2 a4 a3 3e d9 55 86 bd
       -0.07078933 0.096146 0.3196159 -0.06559343
000300 8f 1a 6f be 21 ca 05 bf cc d7 9e bf 54 1d 84 bd
       -0.23349975 -0.5226155 -1.2409606 -0.064509064
000310 6e 5c 0c be b1 54 2b 3d cf 0d 64 bd 6c d1 f5 3c
       -0.13707134 0.041828815 -0.05567723 0.030007087
000320 52 0c b8 bc af dd 36 3c 47 c8 a4 3d 43 99 70 bd
       -0.022466812 0.011161252 0.08046012 -0.05873991
000330 96 3e 9e bc 0e bc a6 3d cc 67 c9 3c 0e e9 50 3d
       -0.019316953 0.08141337 0.024585627 0.05100351
000340 c8 6b 42 3e da 1e 89 3d 84 3a ba bd e0 a6 c8 3c
       0.18986428 0.066953376 -0.09093192 0.024493635
000350 97 92 c1 3d 37 8e 07 3e 9c 13 9b bb 61 9e 0f bd
       0.09451788 0.13237844 -0.004732562 -0.03506315
000360 10 5d e6 bb 4b 6b 52 3c dd 5b 85 bb c1 aa a0 bd
       -0.007030137 0.012842963 -0.004069789 -0.07845069
000370 41 2d 27 3d 0a 59 db 3c f9 a1 30 bd 4a cc f2 3d
       0.040814642 0.026775856 -0.04312322 0.11855371
000380 3e 64 76 be 94 65 a9 3d 9e 5c 74 3d 4e 0c fc bd
       -0.24061677 0.082713276 0.05965864 -0.123070344
000390 94 fd c9 be cf 55 03 3e de c5 04 be a4 f0 08 be
       -0.39451277 0.12825702 -0.12966105 -0.13373047
0003a0 e1 32 0d be 44 f3 a6 3e 79 c3 3e be 9d 6f 88 3d
       -0.1378894 0.32607472 -0.18629254 0.066619135
0003b0 67 0d 74 3d b4 61 26 be 36 02 8c be 8a 02 21 3e
       0.059583094 -0.16248208 -0.27345437 0.15723625
0003c0 27 f4 d2 bd 6f c4 b0 3c 01 25 0b be ae 99 81 bd
       -0.103004746 0.021578042 -0.13588335 -0.0632814
0003d0 b9 79 4f 3e 8a d0 b0 be 43 6a 29 be ea 08 95 be
       0.20261277 -0.34534103 -0.16544442 -0.29108363
0003e0 3f 81 ab be 3f d7 fb 3d d3 3a 10 bd bd 11 84 be
       -0.33497044 0.12296914 -0.03521235 -0.25794783
0003f0 cf 89 34 3e e1 32 11 be e8 4c 1e be aa c9 1d 3d
       0.17630695 -0.14179565 -0.15459025 0.0385224

fc1.bias f4 [64]
000000 7d 70 a4 3d 62 d9 f6 bc e3 5a 19 be 04 0d 7a bd
       0.08029268 -0.030132953 -0.14976077 -0.06104757
000010 7c 69 54 3e df 0e 80 bc e7 66 af bd f7 0e 3b 3d
       0.20743364 -0.015632091 -0.08564549 0.04566857
000020 0b 8d e8 ba d4 df 68 be 4d 97 0a 3e 2d cb 46 3e
       -0.0017742229 -0.22741634 0.13534279 0.19413443
000030 a7 4e 20 3e 20 a6 91 bb ac 0f b1 bd a0 88 20 be
       0.15655003 -0.0044448525 -0.08645567 -0.15677118
000040 04 cf 53 3d c4 b1 eb 3c 9e 8f 97 bc b0 75 30 be
       0.051711097 0.028771289 -0.0185011 -0.17232394
000050 a4 f9 1b be ce d0 ed 3d 39 c2 4e 3d fb 42 a3 bb
       -0.15231949 0.11612092 0.050478194 -0.00498235
000060 5e 3d 14 be 02 2b 35 3e 1f 7d 2b bd 70 0f 38 bc
       -0.14476535 0.17692187 -0.04186737 -0.011234149
000070 a2 20 d1 3d 3a 31 14 3e de 87 f5 bd 73 d5 7d bd
       0.10211302 0.14471903 -0.11988805 -0.06197114
000080 d1 0d 27 3e 4c 96 a7 3c a3 ed 1d be 4d bc ff 3d
       0.16313864 0.02045741 -0.15422682 0.124870874
000090 0d 0e 83 3c 51 f6 4b 3d a1 96 8a 3c 79 06 02 be
       0.01599791 0.049795453 0.016917529 -0.12697782
0000a0 90 6b 8b bd 89 0f 73 bc 5a f0 46 be a7 90 22 3e
       -0.06807625 -0.014835247 -0.19427624 0.15875493
0000b0 1e 09 b7 3c 1a 60 f7 bd 22 7c 23 3c b0 62 e6 bd
       0.022343215 -0.12078877 0.009978326 -0.11249292
0000c0 4b e6 18 be 3e cd 21 3e 9d 14 de bd cf 08 ed 3c
       -0.149316 0.1580095 -0.108437754 0.028934864
0000d0 a9 9b 4e bd a1 d0 2f 3c 64 32 ff bd 28 f1 52 3b
       -0.050441418 0.010730893 -0.12460783 0.0032187197
0000e0 41 b5 af bc fd 83 d7 3c a5 91 3a bd 16 c4 e0 bd
       -0.021448733 0.026308054 -0.045549054 -0.109749004
0000f0 d3 32 14 3d 8e 84 c1 bd d7 2c 27 3d 0f 44 b4 bb
       0.036181282 -0.09449111 0.040814247 -0.0055012773

fc2.weight f4 [64, 64]
000000 81 b2 a4 3d 97 16 de bc de 93 1b 3c fd d0 3e 3e
       0.080418594 -0.027110381 0.0094957035 0.1863441
000010 c1 81 5e bd 9d b9 e3 bb c4 49 8a 3d e4 7b ad bd
       -0.05432296 -0.006949617 0.06752351 -0.08470896
000020 5f 3e 73 bd cc 01 7e 3c ba 74 19 be f5 ed 20 be
       -0.059385654 0.015503358 -0.14985934 -0.15715773
000030 14 9b 6f be 05 39 06 3e 09 61 0b bd 44 8d c9 bd
       -0.23399001 0.13107689 -0.034028087 -0.098413974
000040 9c 0a 24 be 88 af 15 be b6 b7 a6 bd ce df cb bc
       -0.16019672 -0.14617741 -0.08140509 -0.024886992
000050 77 aa d9 bd ac 7a 15 bd ce 5c d4 3d cb 81 d1 bd
       -0.10628217 -0.036493942 0.103692636 -0.10229834
000060 9f 6c ad be ca a5 25 3d 48 26 2c 3e 14 21 41 be
       -0.33871934 0.040441312 0.16811478 -0.18860275
000070 38 eb 37 be ff 17 80 be 5f a8 8c 3e 12 ff ce bd
       -0.17960823 -0.25018308 0.27472207 -0.101072446
000080 76 3a 38 3d 95 5c b0 bb a8 c0 72 3d 25 fb 58 3e
       0.044977628 -0.0053821304 0.059265763 0.21189554
000090 bd 0c 45 be 60 95 35 be 81 c2 f9 3e 56 30 c0 bd
       -0.1924314 -0.17732763 0.48781207 -0.09384219
0000a0 38 12 80 bd 9c bb b9 3d c2 37 86 3d 7a fa e8 bd
       -0.06253475 0.09068987 0.06553604 -0.113758996
0000b0 85 75 cf 3e 62 a8 b7 3c 3d 45 d7 bd 04 9b 0a 3d
       0.40519348 0.022419158 -0.10511253 0.03383924
0000c0 ab fb 3f be cc b3 7b be 6a 3d 33 be 76 a4 4f bd
       -0.18748347 -0.24580306 -0.17503896 -0.05069395
0000d0 41 d8 6b bd 07 23 12 3d 8e 0f 2e 3e 91 45 e9 bd
       -0.057579283 0.035677936 0.16998121 -0.11390222
0000e0 93 3f 67 bc 88 be 26 3d c1 00 1e be e4 c8 a9 3d
       -0.014114278 0.04070905 -0.15429975 0.0829027
0000f0 56 f3 0f bd 58 b0 86 3d 26 dd ad bd c1 b0 35 be
       -0.035144173 0.06576604 -0.08489446 -0.17743208
000100 8a b9 ec 3d f4 1f 26 3e 02 85 46 3d 9f 55 21 3e
       0.11558826 0.16223127 0.04846669 0.15755318
000110 84 f4 71 3e bd 2f 1a 3e a1 43 f4 3d f3 4f fb bd
       0.23628432 0.15057273 0.11926962 -0.122711085
000120 cd 44 9c 3c 3c 01 df bd 27 05 0e be df b1 92 3e
       0.019075776 -0.10888907 -0.13869153 0.2865133
000130 2e b1 fa 3b 77 90 75 3d 9a 8e fc bc 59 ad 41 3e
       0.007650516 0.059952226 -0.030829716 0.18913783
000140 2e f9 71 3d d5 58 09 be 0b f5 b2 bd 70 b8 f9 bd
       0.059075527 -0.13412793 -0.087381445 -0.12193382
000150 bb 27 b0 bc 1f b4 26 3e 77 3d 3c 3d ec 4a a5 bd
       -0.02150332 0.16279648 0.045957055 -0.08070931
000160 42 8a d1 3d 21 77 b2 bc 97 f7 7d bd 3a 2b 02 be
       0.10231449 -0.02178532 -0.0620037 -0.12711802
000170 bc f7 c6 3d 2d 39 4b be 09 8e a0 bd 43 c4 b6 bd
       0.0971522 -0.1984603 -0.07839591 -0.08924153
000180 c7 46 19 be f9 b8 ee bd 08 7c d3 bd 8f cf 4b bd
       -0.14968406 -0.116563745 -0.103263915 -0.04975849
000190 0f db f5 3d c3 e1 ad bc e5 9e 0e 3e e9 31 6e be
       0.12004673 -0.021225816 0.13927801 -0.23261227
0001a0 4b 54 0e be 64 44 f5 bc 00 56 b9 35 36 8f 22 be
       -0.13899343 -0.029939838 1.3808603e-06 -0.15874943
0001b0 23 68 f7 bd 2d 89 97 bd 9c f8 76 be 8d 53 f3 3c
       -0.120804094 -0.07399211 -0.24118274 0.029702926
0001c0 05 25 dc 3c fc 3e 99 be 49 aa 39 be 9f 44 7c 3c
       0.026873121 -0.29930866 -0.18131365 0.01539722
0001d0 4a 75 bf bc 55 d1 2f bc aa 32 06 bd 3c a4 bc bb
       -0.023371357 -0.010731061 -0.03276316 -0.005756883
0001e0 d2 f8 11 bd 1d 8b 93 bc 5b 6c 85 3d c6 f7 0e 3e
       -0.035637684 -0.01801067 0.06514808 0.13961706
0001f0 94 d8 41 be ac a2 ed bd b1 e8 5f 3c a3 6d dd bd
       -0.18930274 -0.11603293 0.013666318 -0.10811927
000200 86 31 87 bc e5 90 e4 bc 5d 33 db bd e7 9c 12 be
       -0.016503107 -0.027901122 -0.10703156 -0.14317666
000210 de 37 5e 3e d2 18 0e 3e 56 cb e8 bd 34 c7 70 3d
       0.21700999 0.13876656 -0.11366908 0.058783725
000220 73 ff 60 3e 60 a4 02 bd 87 b9 1d 3e df fe 53 3e
       0.21972446 -0.03189504 0.15402804 0.20702694
000230 9b 5c 97 3c d8 c9 5d 3e 1d c8 34 be 90 0b 13 3d
       0.018476775 0.21659029 -0.17654462 0.0358997
000240 b4 57 ae bd e9 28 8e 3e dd 77 bc 3c 8d 5a aa bd
       -0.08512822 0.27765587 0.023006374 -0.083180524
000250 06 2f b2 bd 53 1e 9f 3e aa fa df 3d 41 93 fa 3d
       -0.08700375 0.31077823 0.10936482 0.12235118
000260 19 17 6c 3d ff d8 29 3e e9 25 b7 bd 39 f4 a5 be
       0.057639215 0.16586684 -0.08942778 -0.3241289
000270 fa 3c 4a bc 36 76 f3 3e e7 7c 18 be 35 2a 0a bd
       -0.0123436395 0.47551125 -0.14891396 -0.033731658
000280 55 93 0c be 79 4b c7 3d 80 45 03 be 06 83 13 3e
       -0.13728078 0.09731192 -0.12819481 0.1440545
000290 f1 e2 6e 3d d5 de 08 bd 45 d4 4f 3e 38 9e 37 bd
       0.058321897 -0.033415634 0.20295818 -0.044828624
0002a0 66 bd 65 3e 91 00 d7 be d4 b0 32 3a a5 9a 1a be
       0.22435531 -0.4199262 0.00068165106 -0.15098055
0002b0 76 75 53 3c 27 f1 08 3e 8f c0 b1 3d 50 8a 9a 3c
       0.012906423 0.13373242 0.08679306 0.01886478
0002c0 51 9d 9a 3c df 4c 93 be fa ec 74 bd 2a c0 62 3d
       0.018873842 -0.28769585 -0.05979631 0.055359043
0002d0 72 b7 b4 bd 0d 38 fa bd d7 5e 02 be 79 5d e1 b9
       -0.08824052 -0.12217722 -0.12731491 -0.00042984987
0002e0 15 ac 3c 3d cc 69 43 bc 96 a5 25 3e 61 55 f8 3d
       0.046062548 -0.011927079 0.16176447 0.1212566
0002f0 43 f2 93 bc a7 3e f3 bb 6c 10 a4 39 7e 1f 0f be
       -0.018059855 -0.00742324 0.00031292753 -0.13976857
000300 ab e7 03 3d b1 75 0e be 2a 80 4d 3e e2 8b 0a be
       0.032203358 -0.13912083 0.20068422 -0.13529924
000310 c4 6a 33 bd 04 07 03 3e 3e de 33 be a9 da 28 be
       -0.04380299 0.12795645 -0.17565247 -0.16489662
000320 ee d5 ff bd 7a 49 41 3d 0d 98 26 be fc 2c d5 3d
       -0.12491976 0.047189213 -0.1626894 0.10408971
000330 dd de 70 be 57 2c db 3c 5b af 9f bc 2b 42 32 be
       -0.23522516 0.026754541 -0.019492796 -0.17408054
000340 7d 02 8f bd 2e d7 28 bd 06 02 cd bc 57 70 02 be
       -0.069828965 -0.041220836 -0.025025379 -0.12738167
000350 21 91 e9 bd f5 36 b2 bc ae 30 71 bd f3 af ae bc
       -0.11404634 -0.021754721 -0.058884315 -0.021324134
000360 fc 25 40 bd e7 bd da bd f3 4b 12 3d ed 1c 5c bd
       -0.046911225 -0.10680752 0.035716962 -0.053738523
000370 cf af f4 3c cc 8e d6 be ba 12 51 3e 89 0e e8 bb
       0.029868988 -0.4190582 0.204173 -0.007081811
000380 0e a4 e7 bc 01 3e 61 bb 67 03 f1 3d 5e 57 92 3e
       -0.02827647 -0.0034369233 0.11768227 0.2858228
000390 48 9f 64 be 53 9d 80 bd 72 95 fc 3e 3c d3 4a 3c
       -0.22326386 -0.06280007 0.49332768 0.012379464
0003a0 c8 34 cf bd c6 a8 41 3d 8f dd 2d 3c d8 a4 48 bd
       -0.10117489 0.047280096 0.010611906 -0.048985332
0003b0 a8 0a d2 3e b8 1c 1d 3e fd 33 0d be 24 66 15 3d
       0.41023755 0.15342987 -0.13789363 0.036474362
0003c0 75 8c 1c bd 51 af 11 bd aa 84 5d be bf a3 64 bd
       -0.038219888 -0.035567585 -0.21632639 -0.055820223
0003d0 a3 c9 95 3d e9 ef 37 3c ec 7a 80 3d 1b 6c 00 3d
       0.0731385 0.011226633 0.062734455 0.031353097
0003e0 2b 74 49 be c7 a1 ba bc 9f c7 ab bd a8 77 14 3d
       -0.19673221 -0.02278222 -0.08387684 0.036246926
0003f0 89 b2 9a bd ee 7f 01 3e de f7 20 bd c2 35 03 bd
       -0.07553584 0.12646458 -0.039298885 -0.03203369

fc2.bias f4 [64]
000000 fd 91 2b bd 24 16 99 bc 22 e0 f4 3d 57 7b 2c 3d
       -0.041887272 -0.018687315 0.119568124 0.042109814
000010 c5 3d fe 3d 25 74 41 be 9d 8e 6d bd 71 cf 64 3d
       0.12414125 -0.18891962 -0.057997335 0.055861894
000020 4a 29 a8 3d 8e 8c 24 3e e1 86 a2 bd fb 83 9b 3e
       0.08211 0.16069242 -0.07935882 0.3037413
000030 53 a6 a8 3e 7a ee 10 be ac 8e bc bd 73 3a 30 3e
       0.32939395 -0.14153472 -0.092069 0.17209797
000040 8e 66 12 3d 62 12 9a bd e9 16 d5 bd 47 3c 53 3e
       0.035742335 -0.075230375 -0.104047604 0.20628463
000050 d9 c7 88 bb 06 30 df 3e 64 92 3d be 6f 89 a2 bd
       -0.0041742143 0.43591326 -0.18512875 -0.0793637
000060 a0 73 e4 bd 31 15 97 bd a6 2e 0f 3e 86 8c 0a be
       -0.11154866 -0.07377089 0.13982639 -0.13530168
000070 20 da 42 bd 13 23 04 3e 80 99 00 3e a4 15 02 be
       -0.0475713 0.12904005 0.12558556 -0.12703568
000080 f7 4c 7f 3d 44 7d 6d 3d 93 62 10 bd a2 c4 ca bb
       0.06232926 0.05798079 -0.035250258 -0.0061879912
000090 4a a1 fb bd 99 aa 52 be 3f e7 06 3e 44 35 c9 bd
       -0.12286623 -0.2057289 0.13174151 -0.09824613
0000a0 4d 30 00 be c8 32 00 3f b7 5e cd 3e b2 67 27 be
       -0.12518425 0.50077486 0.40111324 -0.1634815
0000b0 44 48 81 3d ae 11 78 bd 05 ab b8 3c 6c 5d 2b bd
       0.06312612 -0.060563736 0.022542486 -0.04183714
0000c0 ff 1c bb 3d 98 dd 58 bd d9 91 0c be 4a 14 b4 3d
       0.0913639 -0.052945703 -0.13727511 0.08792932
0000d0 7e d9 df bd 1e cb 3a be a3 cd 73 3e b4 8f 2d be
       -0.10930155 -0.18241546 0.23808913 -0.1694935
0000e0 f4 9d 60 be fc 15 71 be a3 cc 06 3d 69 20 ff bd
       -0.21935254 -0.23543543 0.03291 -0.124573536
0000f0 c8 98 2c bd 71 6d 11 3e 84 f8 bd 3c 39 91 90 3b
       -0.04213789 0.14201905 0.02318979 0.004411843

fc3.weight f4 [4, 64]
000000 97 d5 35 3e 0a 0f 1c 3e f7 ac 44 3e e6 a9 56 3e
       0.1775726 0.15240112 0.19206606 0.20963249
000010 7a d4 0a 3f 06 59 85 be 84 83 7d 3d 2e 43 c5 3c
       0.54230464 -0.26044482 0.061893 0.024079885
000020 42 ce 1e 3e 74 c1 d2 3d 40 0e 55 be 4f 5a 88 3e
       0.15508369 0.102908045 -0.20806217 0.266314
000030 c7 65 0c 3d f5 d5 da 3c 03 1b 47 bc 87 39 09 3e
       0.03427675 0.02671335 -0.012152436 0.13400851
000040 ea fb 15 3f 6c 92 05 3c d3 d0 19 3c 3b 85 85 3e
       0.58587515 0.0081525855 0.0093881665 0.2607821
000050 20 1e 0a be dd 5d 3a 3e 60 f6 5a be 63 c8 fe bc
       -0.13488054 0.18199869 -0.21383047 -0.031101411
000060 9e 88 2e be 19 88 6c bd e5 97 23 be 95 e0 f7 bd
       -0.17044303 -0.05774698 -0.15975912 -0.121033825
000070 98 68 d9 3e 55 9f 95 3e 83 8f 97 bd 58 49 80 3c
       0.4246261 0.29223123 -0.074004196 0.015659973
000080 48 29 9c 3e aa c4 08 3d 3d ce 2b bd 49 1a 54 3e
       0.30500245 0.03339068 -0.04194473 0.20713152
000090 a7 8d 50 3d b8 00 ee bd e1 a1 04 3e 83 a2 92 3d
       0.05091634 -0.11621231 0.12952377 0.07159903
0000a0 e4 0a da 3c d5 2c 52 3e fe 89 da 3d 36 fe 8d bd
       0.026616521 0.20524915 0.10670851 -0.069332525
0000b0 2c d1 9f 3d 51 46 33 bd cb 85 1d 3e 5f 24 f4 3e
       0.07803568 -0.04376823 0.15383069 0.47684
0000c0 ef df cf b9 4f 0f dd 3d 62 61 a2 bd 14 46 08 3f
       -0.0003964896 0.107939355 -0.079287305 0.5323193
0000d0 ff 14 80 3d fc d1 2e be 38 22 31 3e a7 c1 36 be
       0.06254005 -0.1707229 0.1729821 -0.1784731
0000e0 18 ec 58 be f5 59 e4 bd b7 1f 86 3d 4f c5 53 be
       -0.21183813 -0.111499704 0.06549018 -0.20680736
0000f0 52 80 b9 be 84 47 d7 3e 74 e0 6c be 2f b4 54 3e
       -0.36230713 0.4204675 -0.23132497 0.2077186
000100 32 e6 f7 3e 17 80 0d 3e 47 62 6d 3e 02 f0 a3 3e
       0.48417813 0.13818394 0.23182021 0.3201905
000110 31 69 cb 3e 02 72 41 be 24 2c cc 3d c1 3b 9d be
       0.39728692 -0.18891147 0.09969357 -0.3070965
000120 70 44 67 3d 65 af 22 3e f9 d9 5b 3c a7 18 88 3e
       0.05646175 0.1588722 0.013418668 0.26581308
000130 eb a0 ba 3d 1d b9 8c 3d b1 94 c2 bb 86 a0 11 3e
       0.09112724 0.06871245 -0.0059381356 0.14221391
000140 13 dd e5 3e d1 d6 d2 3b 5c 0a 03 be 67 66 12 3e
       0.4489523 0.0064342995 -0.1279692 0.14296876
000150 30 65 92 bd 5c e6 57 3e e0 28 a8 be 63 c8 6e 3c
       -0.07148206 0.21083969 -0.32843685 0.014574143
000160 b3 1c 67 bd 03 66 f7 bd ac d4 4f 3e 0c 97 32 3d
       -0.056423854 -0.12080004 0.20295972 0.04360108
000170 78 5b c7 3e 24 3c 40 3e bf 35 42 3d 39 96 25 3e
       0.38936973 0.18772942 0.047414538 0.16170587
000180 fb dd 5f 3e 46 7b 56 3e 11 76 e4 bc 3c 70 68 3e
       0.21862023 0.20945463 -0.02788833 0.22699064
000190 57 35 d5 3d 78 e9 e1 bd cc 99 2b 3e 44 6f 6f 3c
       0.104105644 -0.11030859 0.16757888 0.01461393
0001a0 d0 a5 be 3c 5e b9 57 3e d2 67 a5 3d 64 55 10 3d
       0.023272425 0.21066806 0.08076443 0.035237685
0001b0 57 d5 87 ba 69 1e 5a bd 74 36 59 3e 22 4b b6 3e
       -0.0010363263 -0.053251658 0.21212178 0.35604197
0001c0 5b 4e 64 3d 5d 39 09 3e 7a 4f ae bd 28 6e b9 3e
       0.055738788 0.13400789 -0.08511253 0.36216855
0001d0 a0 8b 50 3e 5a 26 2a be 6b 39 d1 3d 63 e7 73 bd
       0.20365763 -0.16616192 0.1021603 -0.05954684
0001e0 28 2c 0d be f2 15 63 be 5a 8f 95 3b a9 1b a3 be
       -0.13786376 -0.2217634 0.004564208 -0.3185704
0001f0 dc dd 09 bd 9e d4 d4 3d d0 b1 33 be ad 2a 10 3e
       -0.033658847 0.10392116 -0.17548299 0.1407878
000200 60 a8 af 3e 68 e0 ac 3d 52 d7 80 3e 9e 7e 01 3f
       0.34308147 0.084412396 0.25164276 0.5058383
000210 29 d9 9b 3e a6 eb e6 3b 59 1a 73 3e 7c 9b 2a be
       0.30439118 0.0070471345 0.2374052 -0.16660875
000220 88 21 81 3e dd 25 bb 3d c6 02 0a be bc 81 53 3e
       0.25220895 0.09138081 -0.1347762 0.20654958
000230 7a 17 65 3e 88 8a a1 bd 5d da ba bc 92 28 4e 3e
       0.22372237 -0.07887751 -0.022809202 0.20132664
000240 12 8b 05 3e df 6b 38 be 8d de a1 be 8d d4 ad 3c
       0.13041332 -0.180099 -0.31615105 0.021219516
000250 09 33 82 be f9 ef 7b 3e 97 d5 e6 be 90 89 a6 3c
       -0.25429562 0.24603261 -0.4508483 0.020329267
000260 7a b9 4a bd 1a b1 2b be 98 06 2d 3e 5e c2 0d be
       -0.04949329 -0.16766778 0.16897047 -0.13843676
000270 ef bc 27 3f 58 70 55 3e 9c 79 4e 3e 29 8e b5 bd
       0.65522665 0.20843637 0.20163578 -0.088650055
000280 e0 9b 3f 3e 32 c4 b8 be 02 45 94 3e a7 a4 e7 3d
       0.18711805 -0.36087185 0.289589 0.11310702
000290 49 60 31 3e 79 93 26 bd 24 42 99 3e 31 e4 2b bd
       0.17321886 -0.040667985 0.29933274 -0.041965667
0002a0 2c c5 3e 3e 5c cf 2a 3e 93 fa 1b 3e b7 27 ab bd
       0.18629903 0.16680664 0.15232305 -0.083571844
0002b0 c3 91 59 3e 73 a6 65 be f2 b9 d7 3d bf 62 38 3f
       0.2124701 -0.22426777 0.10533513 0.72025675
0002c0 49 8e f2 3d d4 8f 82 3d 2f 78 ed bd 8f 7b bf 3e
       0.11843545 0.06375089 -0.11595189 0.37398955
0002d0 f2 ab 41 3e 94 8b c1 3d fd 73 0a 3e 2c 6a ca 3d
       0.18913248 0.094504505 0.13520809 0.09883532
0002e0 3f ac ec bd a7 f5 3a bd 28 aa a3 3e 4d ee 8d be
       -0.11556291 -0.04564443 0.31965756 -0.27720872
0002f0 ec 2d ac be d3 38 26 3e 35 80 ad be 31 3b 40 3d
       -0.33628786 0.16232614 -0.33886877 0.04693145
000300 78 f0 25 3d b3 3a 53 3e a5 88 cc 3d e5 9f 74 3d
       0.040512532 0.2062786 0.099870004 0.0597228
000310 01 7d 9c 3e 0d 1b a3 bd fe d7 80 3d ca 81 96 3e
       0.3056412 -0.07964144 0.06291197 0.29395896
000320 66 18 56 3e 7b 6b ab 3e bb fd 47 3e 7f c9 d7 3d
       0.20907745 0.3348044 0.19530384 0.10536479
000330 bd 16 45 3e ca e4 37 be b7 1c 99 3d 92 a8 07 3e
       0.19246955 -0.1795837 0.0747618 0.13247898
000340 7b 65 60 3f 4f 2f fc 3e 12 c1 24 bd c2 36 03 3e
       0.87654847 0.49254844 -0.04022319 0.12813857
000350 62 94 07 be 80 bb 49 3e 73 c0 db be 2c ea 5e 3e
       -0.13240197 0.19700432 -0.42920265 0.21769017
000360 5b 48 a4 bd d3 ec 99 be a8 0e 21 3e ee d9 93 3e
       -0.08021613 -0.30063495 0.15728247 0.28877205
000370 ee a1 28 be c3 ad 00 3e 2f e4 22 bd dd 4b 68 3e
       -0.16468021 0.12566285 -0.039768394 0.2268519
000380 00 ae c6 3e c9 91 dd be ba 62 8d 3d bd 17 5e 3d
       0.38804626 -0.43275288 0.06903596 0.054221857
000390 22 97 0f 3e 95 e4 0e be 95 99 cd 3d b7 ce 3d bd
       0.14022496 -0.13954385 0.10039059 -0.046339717
0003a0 d5 90 8d be 32 a3 43 3e b3 90 4c 3e 50 2d 74 be
       -0.2764956 0.19105223 0.19977073 -0.2384541
0003b0 f2 2c 7e 3e 77 83 b9 be 3d 48 7b 3e 13 b1 a7 3e
       0.24821833 -0.36233112 0.24539275 0.32752284
0003c0 30 27 86 3e 3d e5 6b bd 24 64 69 3d 8d 62 08 3e
       0.26201773 -0.057591666 0.056980267 0.13318844
0003d0 8d 73 e0 3e cd de 0c be 1c 58 37 3e 03 0d 31 3e
       0.43838158 -0.13756867 0.17904705 0.1729012
0003e0 b8 2f 27 be 66 24 aa be e2 aa 1c be b6 d1 ae be
       -0.16326797 -0.33230895 -0.15299562 -0.34144372
0003f0 ec 55 22 be 7f b5 b2 3e 39 4e a4 bd 91 47 39 3b
       -0.15853089 0.34904096 -0.08022732 0.0028271417

fc3.bias f4 [4]
000000 ff 74 9c 3e 95 10 84 3e da 10 50 3e 84 48 3a 3e
       0.3055801 0.257939 0.20318928 0.18191725

state_value.weight f4 [1, 64]
000000 28 04 5f bd 64 aa bc bd 80 9e dc 3b e4 21 c2 bd
       -0.054447323 -0.09212187 0.006732762 -0.094791204
000010 20 e5 bc bb d0 21 8c bc e2 3d c6 bd ec 27 67 bd
       -0.0057646185 -0.017105967 -0.09679772 -0.056434557
000020 d8 cc 5f 3d 00 c8 12 bd 32 f2 e1 bd 8e 45 d0 3d
       0.054638714 -0.035835266 -0.11032523 0.101695165
000030 0c a1 1f bd 10 d5 76 3c 40 de cd 3d e8 f0 7e 3d
       -0.038971946 0.0150654465 0.100521564 0.062241465
000040 c6 eb ce bd 3e 1f e2 3d c4 b8 0e bd 2c 9b 02 3d
       -0.10103564 0.11041115 -0.034844175 0.031886265
000050 ac ef 63 3d 7c b6 32 3d 24 fa ae 3d 54 0e 67 bd
       0.05564849 0.043631062 0.08543804 -0.05641015
000060 cc 40 be 3d ac bb a2 3d 72 85 e0 bd 30 e4 3e bd
       0.09289703 0.07945952 -0.10962953 -0.046604335
000070 c6 3b dd 3d 84 02 be bd da a3 e7 bd 8a 1a 9e 3d
       0.108024165 -0.092778236 -0.11310549 0.07719906
000080 c4 6a 34 3d 00 8c 60 3c d6 23 cc 3d 20 b0 c9 3b
       0.044047132 0.013705254 0.09967773 0.006155029
000090 64 9e f9 3d 96 e2 a9 bd 88 03 dc bd 30 ae de bc
       0.12188414 -0.08295171 -0.10742861 -0.027182668
0000a0 9c df f8 3d 18 e1 da bd e4 3a 53 3d 48 1a 03 3d
       0.12152025 -0.106874645 0.051569834 0.032007486
0000b0 5c cd 58 bd f4 f1 d1 bd 90 63 56 3d ac 02 40 3d
       -0.05293022 -0.10251227 0.052341044 0.046877548
0000c0 c0 43 56 bb 80 4e 4a 3d 96 fe 8b 3d 52 4e b4 bd
       -0.003269419 0.04939127 0.06835668 -0.08804001
0000d0 0a 4b dd bd 40 47 aa bc 70 5e 93 bc e0 a9 44 bd
       -0.10805328 -0.020785928 -0.017989367 -0.048013568
0000e0 d4 c1 06 3d 5a 73 c4 bd 04 c2 f8 3d 70 10 ce bc
       0.032899693 -0.09592314 0.121463805 -0.025154322
0000f0 c8 ff 8e bd d0 9e a3 bc 10 b6 ca bd a4 84 dd bd
       -0.0698238 -0.019973189 -0.09898007 -0.10816315
