pth_checkpoints/checkpoint_Duelling.pth (torch_old, 28901 bytes, 7 tensors)

fc1.weight f4 [64, 37]
0	0xbdc73171	-0.09726227
1	0x3e0e6d4d	0.13908882
2	0xbd3bb421	-0.04582608
3	0xbdd9e4d2	-0.10639347
4	0x3dbd124b	0.09232005
5	0x3e011fdb	0.12609808
6	0xbe4ab36d	-0.19795008
7	0x3d871a44	0.06596807
8	0x3e1283e8	0.1430813
9	0xbe6ac82a	-0.22927919
10	0x3e3b7cd6	0.1830934
11	0xbeaf7e3e	-0.34276003
12	0xbe71d04c	-0.23614615
13	0xbde1a7d7	-0.11018341
14	0xbf143365	-0.5789092
15	0xbd322293	-0.043490004
16	0x3dc730da	0.097261146
17	0xbd4ab58c	-0.049489543
18	0x3e07cff1	0.13262917
19	0xbc4b8736	-0.0124223735
20	0x3c27c578	0.010239951
21	0x3d210496	0.039311014
22	0x3deeb36f	0.11655318
23	0x3dfe315c	0.12411758
24	0x3e8aecd9	0.27133825
25	0xbd54d985	-0.051965255
26	0x3e2a9866	0.16659698
27	0xbdc4d85f	-0.09611582
28	0xbddd4c64	-0.10805586
29	0xbd70b43b	-0.05876563
30	0xbd8518ca	-0.06498869
31	0x3ca47591	0.020075591
32	0xbd818448	-0.06324059
33	0x3d3d7310	0.04625231
34	0xbe0687a5	-0.13137682
35	0xbd95637e	-0.07294367
36	0xbb5b730e	-0.0033485326
37	0x3cd27f4b	0.025695464
38	0x3e0b1f34	0.13586122
39	0x3e013bcc	0.12620467
40	0x3e359934	0.17734224
41	0x3d5a4f55	0.053298313
42	0x3e12714f	0.14301036
43	0xbeb65927	-0.35614893
44	0xbe883a0c	-0.26606786
45	0xbe141807	-0.1446229
46	0xbec4ae61	-0.3841429
47	0xbdc0614e	-0.093935594
48	0x3ccdc67c	0.025119059
49	0xbce32686	-0.02772833
50	0x3e51c9f4	0.20487195
51	0x3ea2998d	0.31757775
52	0x3e36b4a7	0.17842351
53	0xbd88cf55	-0.066801704
54	0x3c154022	0.009109529
55	0xba6a6d46	-0.00089426746
56	0x3d8a6dab	0.06759199
57	0xbc838761	-0.016055765
58	0xbdf17a1d	-0.117908694
59	0xbd748790	-0.059699595
60	0xbd6c39db	-0.057672363
61	0x3dbbd0d6	0.09170692
62	0xbcb2a594	-0.02180747
63	0x3de8bbed	0.11363969
64	0xbde6acde	-0.112634405
65	0xbd945e73	-0.07244577
66	0xbe755115	-0.23956712
67	0x3d41a562	0.047276862
68	0x3d82e87d	0.06392
69	0x3e15749e	0.14595267
70	0x3e31fe52	0.17382172
71	0x3e3b6e7f	0.1830387
72	0x3c0b4b6d	0.00850187
73	0x3cdf6e31	0.027274223
74	0x3d836f5f	0.06417727
75	0x3e4aa233	0.19788437
76	0xbd54bf58	-0.051940292
77	0x3e26a1eb	0.16272704
78	0xbe3853d9	-0.18000735
79	0xbe839f46	-0.25707453
80	0xbc87f9c8	-0.016598597
81	0x3e80433f	0.25051305
82	0xbd03be15	-0.0321637
83	0xbce72b10	-0.028218776
84	0xbbb96b31	-0.00565853
85	0xbe4af185	-0.19818695
86	0x3da9695a	0.08272047
87	0x3c41b7a7	0.011823571
88	0xbacfdfe6	-0.0015859574
89	0xbe804a86	-0.25056857
90	0x3c75a01d	0.014991787
91	0x3e22c002	0.15893558
92	0x3e762d4f	0.24040721
93	0x3dbac00f	0.091186635
94	0xbe115c7b	-0.14195435
95	0xbddf24fb	-0.10895725
96	0x3e081b3d	0.1329164
97	0xbb8187d0	-0.0039529577
98	0x3e396935	0.1810654
99	0xbe61af16	-0.22039446
100	0x3e96f529	0.29483917
101	0x3e13e20e	0.14441702
102	0xbde2e1dc	-0.110782355
103	0xbda2dc56	-0.07952182
104	0xbe9a4f2c	-0.30138528
105	0x3da09d9e	0.07842563
106	0xbdd554e1	-0.1041658
107	0xbd137efc	-0.036009774
108	0x3cf76739	0.030200588
109	0x3cb3771d	0.021907384
110	0xbd10e456	-0.035374008
111	0x3e7d6f81	0.24749567
112	0xbe53b7e3	-0.20675616
113	0x3e30f40f	0.17280601
114	0x3dc5cbeb	0.09658035
115	0xbf282e72	-0.6569587
116	0xbb89e2c6	-0.0042079417
117	0xbd266d30	-0.040631473
118	0x3dd56d9c	0.10421297
119	0x3c1534d7	0.009106836
120	0xbde115fa	-0.1099052
121	0x3e2cdada	0.1688036
122	0xbc5e7e33	-0.013579893
123	0xbc9635c7	-0.01833619
124	0xbe141365	-0.14460523
125	0xbeea2992	-0.4573484
126	0xbdbc59be	-0.091968045
127	0x3d68c15f	0.056825038
128	0xbd14633a	-0.036227442
129	0x3bd9c409	0.0066456837
130	0x3d356788	0.04428819
131	0x3d5632b6	0.052294455
132	0xbcf91170	-0.030403823
133	0xbc9a826a	-0.018861014
134	0x3e05bfe3	0.1306148
135	0x3e37c2ad	0.17945357
136	0x3e0faa2d	0.1402976
137	0x3d898796	0.06715314
138	0xbe3795b4	-0.17928201
139	0x3e48cc2a	0.19609132
140	0x3db06951	0.086138375
141	0x3cefce58	0.029273197
142	0x3e78fd5c	0.24315399
143	0x3d2f2760	0.04276216
144	0xbd35bef4	-0.04437156
145	0xbe4396d4	-0.19100505
146	0x3d14e96d	0.036355425
147	0xbbf305f7	-0.0074164825
148	0x3ce8e125	0.02842767
149	0xbda64ba8	-0.08119899
150	0xbd9d285e	-0.07673715
151	0xbdfa1353	-0.12210717
152	0xbdba244e	-0.09088956
153	0xbd15a0c2	-0.036530264
154	0x3e18c515	0.14918931
155	0xbe09736a	-0.13422933
156	0x3ec1e362	0.37868792
157	0x3ea21c10	0.31662035
158	0x3cd0f8e7	0.02550931
159	0xbba3b044	-0.0049953777
160	0xbd69abd9	-0.057048652
161	0xbd409d3f	-0.04702496
162	0xbe308334	-0.1723755
163	0x3d56afab	0.052413624
164	0xbd5a3682	-0.05327464
165	0xbd1b8369	-0.03796712
166	0xbdc67dc5	-0.096919574
167	0xbe0c36a9	-0.13692726
168	0xbdbfa9ce	-0.093585595
169	0x394cf3cd	0.00019545779
170	0x3dab884c	0.08375606
171	0xbd093140	-0.033494234
172	0x3eaf161c	0.34196556
173	0x3d7f928c	0.062395617
174	0x3d6a1069	0.057144556
175	0x3c7b4291	0.015335695
176	0xbdffd126	-0.12491064
177	0xbdcdd52d	-0.10050426
178	0x3e07ee3b	0.13274471
179	0xbe2742ab	-0.16334026
180	0xbd6272d7	-0.0552853
181	0x3e1f4e56	0.15557227
182	0x3e472edb	0.19451468
183	0x3c834c84	0.016027696
184	0x3cf58aa1	0.02997333
185	0xbad32063	-0.0016107674
186	0xbd900c10	-0.07033551
187	0x3d2955a4	0.04134144
188	0xbd61544d	-0.055012036
189	0x3cae59fc	0.021283142
190	0x3ec18bf3	0.37802085
191	0xbf188874	-0.5958321
192	0xbebd5059	-0.36975363
193	0xbd8defb0	-0.069304824
194	0xbfb6be8e	-1.4276903
195	0xbd542a1e	-0.05179798
196	0xbc518932	-0.012789058
197	0xbd8928e4	-0.066972524
198	0x3d1d1d8d	0.03835826
199	0x3e308180	0.172369
200	0xbc77070c	-0.015077364
201	0x3cdbd6dd	0.026835853
202	0xbd8f6eef	-0.07003581
203	0xbd3b94e6	-0.045796297
204	0xbde68e26	-0.112575814
205	0x3dc563f9	0.09638209
206	0x3d822be1	0.063560255
207	0x3dd1b3eb	0.10239395
208	0x3dfb207f	0.122620575
209	0x3e8d6722	0.27617747
210	0xbc9aa40b	-0.01887705
211	0xbd05910f	-0.03260904
212	0xbcf66237	-0.03007613
213	0xbe042fc2	-0.12908843
214	0xbdef25f0	-0.11677158
215	0xbd4fcc9b	-0.050732236
216	0x3e13ce7c	0.14434236
217	0x3c17a8f2	0.009256588
218	0x3dcd849e	0.1003506
219	0x3e6aa2f9	0.22913732
220	0xbda9a0ae	-0.082826
221	0x3ccb4a3f	0.024815677
222	0xbe48692a	-0.19571367
223	0x3c6425a5	0.013924991
224	0xbd9bf583	-0.07615187
225	0x3cb07617	0.021540685
226	0x3d414e58	0.047193855
227	0x3bef1345	0.0072959983
228	0xbe1d51df	-0.15363263
229	0xbe84a257	-0.25905105
230	0xbd951cfb	-0.07280918
231	0x3ec6a69e	0.38798994
232	0xbe2fd9ba	-0.171729
233	0x3d7f1a65	0.06228103
234	0x3d76ae36	0.060224734
235	0x3d55df81	0.052215103
236	0x3e462395	0.19349511
237	0xbe6dc8ae	-0.23221084
238	0xbe66003f	-0.22461031
239	0x3b571167	0.003281677
240	0x3ddfba6c	0.10924229
241	0x3da9e087	0.08294778
242	0xbdce0dff	-0.10061263
243	0xbe6dd703	-0.23226552
244	0x3d2a387f	0.041557785
245	0xbcd1b334	-0.025598146
246	0xbc32a19f	-0.010902791
247	0xbe2f3f10	-0.171139
248	0xbe137f8b	-0.14404123
249	0xbdba53fa	-0.090980485
250	0xbd946fcd	-0.07247887
251	0x3e46e4f6	0.19423279
252	0x3c7b86fd	0.015352008
253	0xbdcebe81	-0.100949295
254	0xbe649f2a	-0.22326341
255	0x3c9e5c3f	0.019331096

fc1.bias f4 [64]
0	0x3e001324	0.12507302
1	0xbc9b822e	-0.018982973
2	0xbe1ae30d	-0.15125675
3	0xbbbade4a	-0.0057027685
4	0x3e1ba512	0.15199688
5	0xbd0c9be2	-0.03432835
6	0xbe38696a	-0.18008962
7	0x3be667e0	0.007031426
8	0x3da041b9	0.078250356
9	0xbe684e8a	-0.2268621
10	0x3dd62dc9	0.104579516
11	0x3e0f2ebc	0.13982671
12	0x3d8ca054	0.06866518
13	0x3da4ebf0	0.08052814
14	0xbcf2ded2	-0.029647265
15	0xbdad5bf9	-0.08464808
16	0x3d8adf1f	0.06780838
17	0x3b9729c2	0.004613132
18	0xbb5c50e1	-0.0033617544
19	0xbdf57163	-0.119845174
20	0xbdc3e831	-0.09565771
21	0x3d9e4624	0.07728222
22	0xbadad93f	-0.0016696824
23	0xbd87dcb6	-0.06633894
24	0xbe003db2	-0.12523535
25	0x3dfed814	0.124435574
26	0x3c9f12c1	0.019418122
27	0xbd87cdb8	-0.066310346
28	0x3d72c491	0.05926949
29	0x3de55fa1	0.111998804
30	0xbd2bd921	-0.041955117
31	0xbdc7b07c	-0.097504586
32	0x3e40db23	0.18833594
33	0x3d63fc93	0.055660795
34	0xbde12536	-0.109934255
35	0x3c14d3ff	0.009083747
36	0xbdf31bb4	-0.11870518
37	0x3cbf459c	0.023348622
38	0xbdd6fddd	-0.10497639
39	0xbddb90c4	-0.10720971
40	0xbdc7a4eb	-0.097482525
41	0xbda255ba	-0.07926507
42	0xbdb3ed0f	-0.0878545
43	0x3e0cabb2	0.13737372
44	0xbd2a2e1c	-0.04154788
45	0xbdc824c6	-0.09772639
46	0xbccf2ccd	-0.025289917
47	0xbe3d3b6d	-0.184797
48	0xbde27d5b	-0.11059066
49	0xbcb364f8	-0.021898732
50	0xbe59dd3d	-0.21275802
51	0x3d125978	0.035729855
52	0x3c233c96	0.009963175
53	0xbdedf477	-0.116188936
54	0xbe2a7699	-0.16646804
55	0x3d164809	0.03668979
56	0x3e13c0ed	0.14429064
57	0xbc3a54eb	-0.011372785
58	0xbe01528a	-0.12629142
59	0xbe3a4288	-0.18189442
60	0x3d0072d7	0.03135952
61	0xbd042916	-0.032265745
62	0x3d31c01f	0.04339611
63	0x3e10fa15	0.14157899

fc2.weight f4 [64, 64]
0	0xbc3a2f1a	-0.011363769
1	0x3e066085	0.13122757
2	0x3dc6aead	0.097012855
3	0x3e3fe3ca	0.18739238
4	0xbbdc5a70	-0.006724648
5	0xbdb71e5f	-0.0894134
6	0xbe6fbe8a	-0.23412529
7	0x3c7f3133	0.015575695
8	0x3d1e96d6	0.038718067
9	0xbe4510d8	-0.19244707
10	0xbe68e075	-0.22741874
11	0xbdc625ee	-0.09675203
12	0xbe4cf96a	-0.20017019
13	0x3e110273	0.1416109
14	0xbc652514	-0.013985891
15	0x3cdd58f2	0.027019951
16	0xbdc3a239	-0.09552426
17	0xbdb73109	-0.089448996
18	0x3d026fd1	0.031844918
19	0xbd10b92b	-0.03533284
20	0xbbdc9cf1	-0.006732576
21	0xbe992092	-0.29907662
22	0xbe401dea	-0.18761411
23	0x3d694ed3	0.05695994
24	0xbf13474a	-0.57530653
25	0xbd962833	-0.07331886
26	0xbebd1278	-0.36928153
27	0x3d6859cd	0.056726266
28	0x3d241370	0.0400576
29	0xbdcadae3	-0.099050306
30	0x3e26a405	0.16273506
31	0xbe4e3e4b	-0.2014095
32	0x3e3a34a0	0.18184137
33	0xbb47a47c	-0.003046303
34	0x3d7cdbc2	0.061733015
35	0xbd499ebb	-0.049223643
36	0xbd923a8d	-0.07140074
37	0x3f0b2e3a	0.5436741
38	0xbe13caf5	-0.1443289
39	0xbe15b452	-0.14619568
40	0xbe95f188	-0.29285836
41	0xbe20c017	-0.15698276
42	0x3c978d47	0.018499983
43	0xbdb26287	-0.08710199
44	0x3af5392d	0.0018709056
45	0xbd3268c1	-0.043556932
46	0xbc22e3db	-0.00994202
47	0x3d2606d8	0.04053387
48	0xbe609527	-0.21931897
49	0xbcd77fe2	-0.026306096
50	0xbd9a9e4a	-0.075497225
51	0xbdf9174d	-0.121626474
52	0xbdb9d72d	-0.09074245
53	0xbe89d9c8	-0.26923966
54	0xbccef605	-0.025263796
55	0xbd4ee704	-0.050513282
56	0x3cf3a54e	0.02974191
57	0xbda4fda2	-0.08056189
58	0xbe86aafc	-0.26302326
59	0x3cd8266c	0.026385508
60	0x3d569d51	0.052396122
61	0x3e2857c6	0.16439733
62	0x3de00ea6	0.10940294
63	0xbcebdb13	-0.028790986
64	0x3cd2e081	0.025741817
65	0x3d6cfbe1	0.057857398
66	0xbdeec401	-0.116584785
67	0x3e0a08be	0.13479897
68	0xbd3963b9	-0.04526112
69	0xbd22fe84	-0.039793506
70	0xbdc9314a	-0.09823854
71	0x3df868cc	0.121293634
72	0xbe94948c	-0.29019582
73	0xbd0d04d7	-0.034428444
74	0x3c64867a	0.013948077
75	0x3d9955d8	0.074870765
76	0xbe4e3b49	-0.20139803
77	0x3df8e981	0.12153912
78	0xbdcfb193	-0.101412915
79	0x3e2f34a9	0.17109932
80	0x3e3d30eb	0.18475692
81	0xbea2d9da	-0.31806833
82	0xbca0b86b	-0.019619187
83	0x3e529767	0.20565568
84	0x3d1370b3	0.03599615
85	0xbe590ece	-0.21197054
86	0x3ded8071	0.11596764
87	0x3e157797	0.14596401
88	0xbdaabaa5	-0.08336381
89	0x3e044730	0.12917781
90	0x3dd44897	0.10365408
91	0xbdd20a92	-0.102559224
92	0x3d8439ce	0.06456338
93	0xbe8b132e	-0.2716307
94	0x3cebda56	0.028790634
95	0x3ca7f71a	0.02050357
96	0x3cd43c2c	0.025907598
97	0xbd68e302	-0.056857117
98	0x3d2344a4	0.039860383
99	0xbd46c82a	-0.048530735
100	0x3e2e314b	0.17010991
101	0x3cd51883	0.026012665
102	0x3e5e79b0	0.21726108
103	0x3e2b4f88	0.16729558
104	0x3b9e9dc8	0.0048405863
105	0xbd074a7b	-0.033030014
106	0xbd2d5077	-0.042313065
107	0xbe7c7d71	-0.24657227
108	0xbb6de2bd	-0.0036298477
109	0xbe1db197	-0.15399776
110	0xbdd325d5	-0.1030995
111	0xbec30b1f	-0.38094422
112	0x3e00f8f1	0.12594964
113	0x3d37ce0b	0.044874232
114	0xbe1e7d2c	-0.15477437
115	0xbdbe1c84	-0.09282783
116	0xbe825a70	-0.25459623
117	0xbdc16011	-0.09442151
118	0x3d8aeb48	0.067831576
119	0xbd2a6927	-0.041604187
120	0xbe5cbf0a	-0.2155725
121	0xbd000839	-0.03125784
122	0x3c811185	0.015755424
123	0x3e00214e	0.12512705
124	0xbdb7753c	-0.089579076
125	0xbd4964c9	-0.04916838
126	0xbc0a8331	-0.00845413
127	0xbe1c5b94	-0.1526931
128	0xbd885177	-0.06656163
129	0xbdc8e306	-0.09808926
130	0xbd55d7b4	-0.052207664
131	0xbd6a797e	-0.05724477
132	0x3cd9892b	0.026554665
133	0x3d6ff350	0.05858165
134	0x3c24b542	0.010052981
135	0xbd7bad1a	-0.06144438
136	0x3eae3570	0.34025145
137	0xbd5ca35a	-0.05386672
138	0x3e4ad4bb	0.19807713
139	0x3aeb12c5	0.0017934671
140	0x3d7ae528	0.061253697
141	0x3d554d93	0.052075934
142	0xbd0fa403	-0.035068523
143	0x3bfc5ade	0.007701262
144	0xbddbeab6	-0.10738127
145	0x3dac8a48	0.084248126
146	0x3ca0b380	0.019616842
147	0xbdd11d48	-0.10210663
148	0xbe1b9d9a	-0.15196839
149	0xbe33d7fb	-0.17562859
150	0xbd81af41	-0.06332255
151	0x3dbdaee1	0.09261871
152	0xbe2847dc	-0.16433662
153	0x3d1cca8c	0.0382791
154	0xbd456727	-0.048194077
155	0x3e9028da	0.28156167
156	0x3ce01189	0.027352111
157	0x3eb7ecc2	0.3592282
158	0x3d27db89	0.04098085
159	0xbddbcbcf	-0.10732233
160	0xbd8acc3d	-0.067772366
161	0xbdcfefac	-0.10153136
162	0xbe1f343a	-0.15547267
163	0xbd1c575b	-0.038169246
164	0xbcdb99e8	-0.026806787
165	0x3b099891	0.0020995478
166	0x3dc74154	0.09729257
167	0x3d989957	0.07451122
168	0x3e383ede	0.17992732
169	0xbc27a3af	-0.010231896
170	0x3d85a386	0.0652533
171	0x3d90008e	0.07031356
172	0x3d81b74a	0.06333788
173	0xbd0f926e	-0.035051756
174	0xbd26e678	-0.040747136
175	0xba28dad4	-0.00064412993
176	0x3e000ac5	0.12504108
177	0xbe1097a5	-0.14120348
178	0xbe255452	-0.16145447
179	0x3c99f49f	0.018793402
180	0xbe197ff0	-0.1499021
181	0xbdb4a567	-0.088206105
182	0xbe1a861f	-0.15090226
183	0xbc3ba11b	-0.011451985
184	0xbe1161ca	-0.1419746
185	0xbdc6ed9a	-0.09713288
186	0x3e42d5cf	0.19026874
187	0x3e5f917f	0.21832846
188	0x3d9303fe	0.07178496
189	0x3dbb7adb	0.09154292
190	0x3d4bd570	0.049764097
191	0x3e18c9c7	0.14920722
192	0xbf337300	-0.7009735
193	0xbe895360	-0.26821423
194	0x3e669142	0.22516349
195	0xbeb557c9	-0.35418537
196	0xbe5e15f6	-0.21688065
197	0xbc91b8bd	-0.017788285
198	0x3e5b2ecb	0.21404569
199	0xbe812423	-0.25222883
200	0xbe29cfce	-0.16583177
201	0xbd9ccd9b	-0.07656404
202	0xbe500738	-0.20315254
203	0x3cd78539	0.026308643
204	0xbf25f617	-0.6482863
205	0xbc35a8d6	-0.011087617
206	0xbcac9243	-0.021065837
207	0xbede4ccc	-0.43417966
208	0xbde5fe6e	-0.11230169
209	0xbd161078	-0.0366368
210	0xbdd7cd82	-0.105372444
211	0xbd995504	-0.074869186
212	0xbd8b20f8	-0.06793398
213	0x3e87abfc	0.264984
214	0xbe28c388	-0.16480839
215	0x3e60cef8	0.21953952
216	0xbeb82355	-0.35964456
217	0xbe4a37e5	-0.19747885
218	0xbebfc365	-0.37453762
219	0x3d42b301	0.047533993
220	0x3e1d6931	0.15372159
221	0xbed4fd7f	-0.41599652
222	0xbc30f1a0	-0.010799795
223	0x3e3a0b2e	0.18168327
224	0xbe9eca2b	-0.31013617
225	0xbe42a6f6	-0.19009003
226	0x3e2e8ec3	0.17046647
227	0x3db38dcb	0.08767279
228	0xbd7be8cd	-0.061501313
229	0x3dd44b3d	0.10365913
230	0xbda8e635	-0.082470335
231	0xbe76ea85	-0.241129
232	0xbe827f63	-0.25487813
233	0xbe9e1b6b	-0.30880293
234	0x3e176dbe	0.14787957
235	0xbdf5698b	-0.11983021
236	0xbece5527	-0.4029934
237	0xbd71dd32	-0.05904884
238	0xbe6ec83b	-0.2331857
239	0xbc858bc9	-0.016302006
240	0xbe273f91	-0.16332842
241	0x3e641956	0.2227529
242	0xbd29ef95	-0.04148825
243	0xbbdb93d2	-0.006700971
244	0xbdab9c42	-0.08379413
245	0x3da7a698	0.08186072
246	0x3de80c9b	0.11330529
247	0xbe0f4a1c	-0.13993114
248	0xbe309faf	-0.17248414
249	0xbe45016a	-0.1923882
250	0xbe1535af	-0.1457126
251	0x3e801e39	0.25023058
252	0xbf2737ab	-0.6531932
253	0x3da8cab1	0.08241785
254	0xbe54b70f	-0.20772956
255	0xbdab60cf	-0.08368074

fc2.bias f4 [64]
0	0xbe314149	-0.1731006
1	0xbdf4fdfb	-0.119625054
2	0x3d65df2d	0.05612104
3	0x3d1cb95f	0.03826272
4	0x3df26a99	0.11836738
5	0xbdd41d3a	-0.10357137
6	0xbde54722	-0.11195208
7	0xbceafa9c	-0.028683953
8	0x3e833d83	0.25632867
9	0x3e8b81c8	0.27247453
10	0xbde1665d	-0.11005852
11	0x3dddfa54	0.10838762
12	0xbbf6168a	-0.007510011
13	0xbd52aeca	-0.051436223
14	0xbd4a13fc	-0.049335465
15	0x3e1b629f	0.1517434
16	0xbd384d20	-0.044995427
17	0xbe0f7f42	-0.14013389
18	0xbdd88f34	-0.10574189
19	0x3e02dc24	0.1277929
20	0x3e559202	0.20856479
21	0x3ec4cba1	0.38436607
22	0x3c5bc629	0.013413944
23	0xbde73b05	-0.11290554
24	0xbd39a2ed	-0.045321394
25	0xbdbeaae8	-0.093099415
26	0x3d82b690	0.06382477
27	0xbe1824d5	-0.148578
28	0xbd3d8f23	-0.046279084
29	0x3d134482	0.035954006
30	0xbc496df8	-0.012294285
31	0xbd89760a	-0.06711967
32	0xbd9e3826	-0.07725553
33	0xbcac46aa	-0.021029789
34	0x3e77f73c	0.24215406
35	0xbdc5a13c	-0.09649894
36	0xbdd3f466	-0.1034935
37	0xbe3e74b9	-0.18599214
38	0x3d841398	0.0644905
39	0xbd69963c	-0.05702804
40	0xbda66aaa	-0.08125813
41	0x3d07b476	0.033131085
42	0x3e3b89be	0.18314263
43	0xbd49271b	-0.04910956
44	0xbc180ce8	-0.009280421
45	0xbdea01ea	-0.11426146
46	0xbe3c0d4c	-0.18364447
47	0xbe2ab11f	-0.16669129
48	0x3d8a0948	0.067400515
49	0xbd51ab13	-0.05118854
50	0xbdf4be12	-0.119503155
51	0x3e119a03	0.14218907
52	0xbe21f6ba	-0.15816775
53	0xbdaf0ddb	-0.085475646
54	0x3e53df98	0.20690763
55	0xbdb73756	-0.08946101
56	0xbe785e52	-0.2425473
57	0xbe34841e	-0.17628524
58	0xbcdaaaab	-0.026692709
59	0xbe12b797	-0.14327846
60	0xbd0bb34c	-0.034106538
61	0x3dcc1744	0.09965375
62	0x3d8053db	0.06265994
63	0xbde49296	-0.111607715

fc3.weight f4 [4, 64]
0	0x3eb2b448	0.3490317
1	0x3dc634ee	0.09678064
2	0x3d5b51d1	0.053544823
3	0xbeebe6bf	-0.46074483
4	0x3e268589	0.16261877
5	0x3d566815	0.052345354
6	0x3ea3f4da	0.32022744
7	0xbda13543	-0.07871487
8	0x3dc9fe30	0.098629355
9	0x3ddccd1c	0.10781309
10	0xbe25957a	-0.16170302
11	0xbe2b6512	-0.16737774
12	0xbe4377fd	-0.1908874
13	0xbcf94c3c	-0.03043186
14	0x3e18fcde	0.14940211
15	0x3d1a6ea3	0.037703168
16	0xbd0309f0	-0.0319919
17	0x3b43aab1	0.0029856379
18	0x3b9b4777	0.004738744
19	0x3e249cc5	0.16075428
20	0x3d5e21f4	0.0542316
21	0x3de4e519	0.111765094
22	0x3dcafdb5	0.09911672
23	0xbe3499c2	-0.17636779
24	0x3e82d42b	0.25552496
25	0xbd09c2a4	-0.03363289
26	0xbe19dfbd	-0.15026756
27	0xbe4486e8	-0.19192088
28	0xbdb4a66d	-0.08820806
29	0x3e20cfda	0.15704289
30	0xbeb23f59	-0.34813955
31	0x3df12d0d	0.11776171
32	0xbcaad323	-0.020852631
33	0x3d859ec2	0.06524421
34	0x3d7a28f2	0.061074205
35	0x3c92998c	0.017895482
36	0xbe057c3d	-0.13035674
37	0xbe1b69cf	-0.15177082
38	0x3f0c1747	0.5472302
39	0xbd35eb40	-0.044413805
40	0xbe0ea797	-0.13931118
41	0x3deb33ae	0.114844665
42	0xbe1b7c15	-0.15184052
43	0x3dad5fa5	0.08465508
44	0x3e6f203e	0.23352143
45	0xbd84cfc7	-0.06484943
46	0xbe6e0fa4	-0.23248154
47	0xbee5ea54	-0.4490534
48	0x3eb7b99b	0.35883793
49	0x3e93d43d	0.28872862
50	0xbe8aeca6	-0.27133673
51	0x3e3db23b	0.18525021
52	0xbd74425c	-0.059633598
53	0xbead1a81	-0.33809283
54	0x3e11df0a	0.14245239
55	0x3eb537fb	0.35394272
56	0xbeacd912	-0.33759362
57	0x3d1775b5	0.03697749
58	0x3e7b68af	0.24551652
59	0x3e3fd8a9	0.18734993
60	0xbe84e3fb	-0.25955185
61	0x3df957c4	0.12174943
62	0x3cd09271	0.025460454
63	0x3e706ebf	0.23479746
64	0x3dd14987	0.10219102
65	0xbd22ee15	-0.039777834
66	0x3dd6bfd7	0.10485809
67	0x3eed7d29	0.46384552
68	0x3d7f411b	0.06231795
69	0x3ea16da0	0.3152895
70	0xbeadf0b2	-0.33972698
71	0xbe7c1986	-0.24619111
72	0xbc3ef9fc	-0.011656281
73	0x3da16024	0.078796655
74	0x3daaf60f	0.08347713
75	0x3d800b04	0.06252101
76	0xbec5594a	-0.38544685
77	0x3e7ecca7	0.24882756
78	0x3e7281ea	0.23682371
79	0x3b85bc4a	0.0040812837
80	0xbdc978ea	-0.09837516
81	0x3e7a2c2e	0.24430916
82	0xbd81d3f8	-0.06339258
83	0x3dde104c	0.10842952
84	0x3e10cf75	0.14141639
85	0x3dff2eed	0.12460122
86	0x3d7f2111	0.062287394
87	0xbd7aa9c3	-0.061197054
88	0x3b1dd5c3	0.002408371
89	0xbd58ba52	-0.052912064
90	0x3d8c5545	0.06852201
91	0x3d1d96a1	0.03847373
92	0x3d2368ad	0.03989475
93	0x3e78ad9e	0.2428498
94	0x3ec52033	0.3850113
95	0x3e230ced	0.159229
96	0x3da592a5	0.08084611
97	0x3cea95e2	0.028635923
98	0x3d91a2a8	0.07111102
99	0x3e3dda41	0.18540289
100	0x3d611536	0.05495187
101	0xbe1efde4	-0.15526539
102	0x3ef9ccb1	0.4878898
103	0xbc5df9b7	-0.013548306
104	0xbd410f76	-0.047133885
105	0x3e7b7a64	0.24558407
106	0xbc2b30a0	-0.010448605
107	0x3ea5d7c1	0.3239117
108	0x3ddd52da	0.10806818
109	0xbc9ec828	-0.019382551
110	0xbdd02a74	-0.10164347
111	0xbbcebc3d	-0.006309061
112	0x3e438f2a	0.19097582
113	0x3e075266	0.13215026
114	0xbe51edb8	-0.20500839
115	0x3e3486dd	0.17629571
116	0xbe00cfb6	-0.12579235
117	0x3e30224c	0.17200583
118	0x3d3234ee	0.04350751
119	0xbed6bb55	-0.41939798
120	0xbd088db2	-0.033338256
121	0x3dc3f951	0.09569038
122	0x3e368ddf	0.17827557
123	0x3e0000de	0.12500331
124	0xbe1b2d4f	-0.15154003
125	0x3cc4978f	0.02399805
126	0x3daf6fb4	0.085662276
127	0xbbf15c10	-0.007365711
128	0xbc8f9638	-0.017527685
129	0xbd90b426	-0.070656106
130	0x3e8b3551	0.27189115
131	0xbea10a20	-0.31453037
132	0x3e20d80b	0.15707414
133	0xbc99b4cd	-0.01876297
134	0x3ef0d18e	0.47034878
135	0x3e91b5e7	0.28459093
136	0x3d1a1a97	0.037623014
137	0x3d393356	0.045214973
138	0xbd155d47	-0.03646591
139	0x3e7b29f6	0.24527726
140	0x3ef32596	0.47489613
141	0xbd545a03	-0.051843654
142	0xbee6e273	-0.45094642
143	0x3de6d418	0.112709224
144	0x3d671c00	0.056423187
145	0x3e563382	0.20918086
146	0xbd795b83	-0.060878288
147	0x3c577a82	0.013151767
148	0xbd332403	-0.043735515
149	0x3e2348e6	0.15945777
150	0xbdb5f72c	-0.08885035
151	0x3ceefb20	0.02917248
152	0x3d8c1870	0.068405986
153	0xbe4009e1	-0.18753769
154	0xbe67f3db	-0.22651617
155	0xbe580a2e	-0.21097633
156	0x3c807247	0.015679492
157	0x3ec0feb5	0.37694326
158	0xbddfb5b2	-0.109233275
159	0xbe0c6219	-0.13709296
160	0x3e13acba	0.14421359
161	0xbd26f75e	-0.04076325
162	0x3e12fd3d	0.14354415
163	0x3f04fb3b	0.5194585
164	0x3db60707	0.08888059
165	0xbe72a3f1	-0.23695351
166	0xbefffa08	-0.49995446
167	0x3c872ea9	0.016501741
168	0x3e174db2	0.14775732
169	0x3dff8a51	0.12477554
170	0x3e036a14	0.12833434
171	0x3e045d07	0.12926112
172	0xbdecc0fa	-0.11560245
173	0x3b2607f3	0.0025334328
174	0x3e770c78	0.2412585
175	0x3e1bac75	0.15202506
176	0x3f062aff	0.52409357
177	0xbb731e63	-0.003709697
178	0xbda51ce7	-0.08062153
179	0x3e7bb9e8	0.24582636
180	0xbd32af0b	-0.043623965
181	0xbcd5fbaf	-0.026120989
182	0x3da1e48b	0.07904919
183	0x3e5fe7b9	0.21865739
184	0xbe927059	-0.2860134
185	0xbe925743	-0.285822
186	0x3edbf3e5	0.42959514
187	0x3ea6d3ea	0.32583553
188	0xbe94e9b9	-0.29084566
189	0x3dbb9e28	0.09161025
190	0xbe3f990b	-0.18710725
191	0x3eb40779	0.3516195
192	0x3eead9b0	0.45869207
193	0xbc858121	-0.016296925
194	0x3d18052d	0.03711431
195	0x3e4dff6a	0.20116964
196	0x3d31559a	0.043294527
197	0x3e46ad98	0.19402158
198	0xbd5e129d	-0.05421697
199	0x3e5c40b5	0.21509059
200	0x3d868328	0.06567985
201	0x3e231f50	0.15929914
202	0x3e8b4159	0.27198294
203	0xbcde2ee5	-0.02712197
204	0x3d36acb1	0.044598285
205	0x3c85e529	0.016344624
206	0x3ed85003	0.42248544
207	0x3d5b3b89	0.053523574
208	0x3ddc8071	0.10766686
209	0xbe8057f0	-0.2506709
210	0x3dae3c40	0.085075855
211	0x3dc2b520	0.09507203
212	0xba86183d	-0.0010230612
213	0x3e174928	0.14774
214	0xbe394d36	-0.1809586
215	0x3def39f5	0.11680976
216	0x3e4f16b1	0.202235
217	0xbea6e7cb	-0.3259872
218	0x3d02eaa4	0.031962052
219	0x3e48f3cb	0.1962425
220	0x3e78690f	0.24258827
221	0xbd293d93	-0.041318487
222	0xbc7b822b	-0.015350859
223	0x3d6aede9	0.057355795
224	0x3df4dc33	0.11956062
225	0x3e77c5fb	0.24196617
226	0xbaea65b6	-0.0017883095
227	0xbe4963e7	-0.19667016
228	0x3e0da5f6	0.1383284
229	0xbdf452ca	-0.11929853
230	0x3e5b7a8d	0.21433468
231	0xbe4d4dd6	-0.20049223
232	0xbedbc3e4	-0.4292289
233	0x3eb3c5ad	0.35111752
234	0x3e3c6c04	0.1840058
235	0xbed79109	-0.4210284
236	0x3f0acc1c	0.54217696
237	0xbd1c26f8	-0.0381231
238	0x3d87b4a4	0.06626251
239	0x3e584b18	0.21122396
240	0xbd81315c	-0.06308243
241	0x3d3baa53	0.04581673
242	0x3daec8a6	0.085343644
243	0x3e567380	0.20942497
244	0xbafc4a56	-0.0019248228
245	0x3c6897ba	0.014196331
246	0x3dfb5120	0.12271333
247	0xbce8566d	-0.028361524
248	0xbe9dbea9	-0.30809525
249	0xbbf386e6	-0.0074318526
250	0xbe186eb8	-0.14885986
251	0xbe98bdb4	-0.29832232
252	0xbd680875	-0.05664869
253	0xbd32d07d	-0.04365586
254	0xbdc32a0a	-0.09529503
255	0xbe9ac279	-0.30226496

fc3.bias f4 [4]
0	0x3e3a7332	0.18208006
1	0x3e261888	0.16220295
2	0x3e1bdbf6	0.15220627
3	0x3e1b31cb	0.15155713

state_value.weight f4 [1, 64]
0	0x3ed2f495	0.41202226
1	0xbe6e61a0	-0.23279428
2	0x3de68870	0.11256492
3	0xbf23dca1	-0.6400853
4	0x3d974ea5	0.07388047
5	0x3eb0e309	0.34548214
6	0xbe5c58ad	-0.21518202
7	0xbc0958c4	-0.00838298
8	0x3e123ca8	0.14280951
9	0x3d8d34bf	0.06894826
10	0xbda7cf86	-0.08193879
11	0x3e08e751	0.1336949
12	0xbeef027c	-0.46681583
13	0x3e316b1b	0.17326014
14	0x3ecd7226	0.4012615
15	0x3e15a94c	0.14615363
16	0xbd8b7c17	-0.06810778
17	0x3dfcbf23	0.12341144
18	0xbc98ee53	-0.01866833
19	0x3ded11f5	0.11575691
20	0x3dafcfb3	0.08584537
21	0x3e11da79	0.14243497
22	0x3d98e3b1	0.07465304
23	0xbea5bbf6	-0.32369965
24	0x3ec0e27f	0.37672803
25	0xbe305f4d	-0.17223854
26	0xbe88395e	-0.26606268
27	0xbe07b162	-0.1325126
28	0x3e7a3091	0.24432589
29	0x3e8e2fc5	0.2777082
30	0xbe9053bc	-0.28188884
31	0x3dcd0087	0.10009866
32	0x3e57eb90	0.21085954
33	0x3e1a5321	0.15070774
34	0x3e233837	0.15939413
35	0x3ea93d56	0.33054608
36	0x3e753b86	0.23948488
37	0xbe54dc31	-0.20787121
38	0xbe93adcb	-0.2884353
39	0xbe1bc23f	-0.15210818
40	0xbd6d96e5	-0.058005232
41	0x3e1e8707	0.15481196
42	0x3e028a63	0.12748103
43	0x3deb880c	0.11500558
44	0x3e5c2a87	0.21500598
45	0xbd386736	-0.045020305
46	0xbe1972b4	-0.14985162
47	0x3ead3989	0.33832958
48	0x3f06aa6b	0.5260379
49	0x3e9bafb4	0.30407488
50	0x3cda175e	0.02662247
51	0x3e5d4a6c	0.21610421
52	0xbec05c3d	-0.37570372
53	0xbe002146	-0.12512693
54	0x3d80b2cb	0.06284102
55	0xbec83975	-0.39106336
56	0xbe9ef84a	-0.31048805
57	0xbd7e24f7	-0.06204697
58	0x3ea80694	0.3281752
59	0x3e71114e	0.23541757
60	0xbea25c0a	-0.31710845
61	0x3d515d03	0.051114094
62	0xbe47ec0b	-0.19523637
63	0xbdbc092e	-0.091814384
