pth_checkpoints/checkpoint_DDQN.pth (torch_old, 28901 bytes, 7 tensors)

fc1.weight f4 [64, 37]
00000000: 2702 df3c 1cfe 0ebe 844d 20bd 0094 5cbd
00000010: 2245 11bd f619 0c3e 7a89 8dbe af31 313e
00000020: e34e a43d c671 9cbe 0d5d 0ebd 2d48 e9bd
00000030: d36c edbd d852 babd 4dd3 373c 2756 51bd
00000040: 7256 4f3d 20af 003e 26ff 283d 8864 543d
00000050: ccc7 823d 7443 f93d ccc7 24bd 8920 46bb
00000060: 850f 0e3d 68c7 a3bd c8c6 573d 0ee1 13be
00000070: 1af3 a43d dc3f 5dbd ea2b adbc fbb3 ab3d
00000080: d202 1fbe 6d45 d7bd 804e 3dbe 0b6d 17be
00000090: dbc1 1cbd b259 793e d8c4 393c ba1f 913d
000000a0: 6e26 993d 9078 68bd 9b62 493e 118f c4be
000000b0: 8728 45be 33b3 92be a5da f0be c691 7a3c
000000c0: 4b46 163d 2470 703d ac61 e53d 96ee 4f3e
000000d0: 4931 bc3d c79e 393d 10a1 133e 5071 b3bd
000000e0: 3af1 703d 5ee3 44bd fc41 babd e150 e8bd
000000f0: f241 7d3b 534d 323e 1335 923d a090 083d
00000100: 6a68 8b3c efe2 c1bd 70e2 36be 67e2 0ebc
00000110: d1ea 2b3e f631 2e3e 7d93 3dbb f857 793e
00000120: 7b25 a73c b048 e13c 24c8 dd3d 995d ef3d
00000130: d257 ea3d bdf3 40be 1ee1 8ebc b800 ccbe
00000140: 906e 11be 65af 9e3e e255 633e a482 4cbe
00000150: 7c04 81bd 6acd b9bd 5b1a c73d 2b69 bdbb
00000160: b58a 053e 2ae6 9abd 90c0 69bb 9f7d ec3d
00000170: 5fe6 233e 0fc8 863c 78c9 0dbe 2d2b 84be
00000180: 5dad 943c 81f2 7d3e 7099 d93d bf63 3cbd
00000190: 676e 9a3d ec60 2d3e bcf7 593b 0b64 3a3e
000001a0: 3923 22be 1f23 0ebe b115 6a3b 2f36 cdbd
000001b0: 9646 eb3d 08d2 bf3c 0bc9 26bd 07a5 ab3d
000001c0: 47eb ce3c 712e 1e3e 2f58 463d c320 7bbe
000001d0: 24c5 573b d7a9 4dbe 79d3 153e f3cf 7f3d
000001e0: 5bc3 a63e c849 423b 4b71 563c 37ad cb3d
000001f0: 27e5 83be 6694 b9bd 25f1 663c 6017 08be
00000200: 5f51 7f3c 4953 9dbe 1d64 0ebe 35a7 6c3e
00000210: b23f 9abe 0fa4 c3bc be25 88bd 271a 94be
00000220: 8175 3e3d 9de3 1f3d 864c cf3c e5cd 753d
00000230: 0b83 833e ac0e 043e e040 8c3e 5342 7fbd
00000240: fcf5 61be c8ab 10be f133 cf3d caf4 b53a
00000250: ed0f a7bd e34f 0abe c0e8 2fbe 29c5 d9be
00000260: 0963 2f3d 2949 4dbe 6c32 b33e 189d adbe
00000270: 208f 823e 2f20 67be f30d a13d 4ab2 41be
00000280: 1e45 9bbd 85a2 9cbe d315 e5be 3858 36be
00000290: f375 f1bd e0f8 0bbc 27b1 b2bd 56cb 533e
000002a0: e3b5 333c 4514 3ebe 2cb5 12bd a593 87bd
000002b0: ea7b d53d f892 bbbb a24f 7cbd 2426 0dbd
000002c0: 8565 b93d 33bd 45bd d9af 6b3e 1495 87be
000002d0: a570 55be f3e9 67be fbed dd3c 048c 313c
000002e0: 1580 753c 886c a73d 0e52 bfbd d18c 263c
000002f0: c802 36be 85d3 bebc 188f 263e b4de 813e
00000300: 6418 66be 1e44 d2bc fb9d 2cbf a004 06be
00000310: a152 09bd eedf 1abc 21bc a2bc 12e5 feba
00000320: dc71 5bbd 1909 833d a8fe 9bbd a0d0 81bd
00000330: 1bdb babd 61e0 ea3d bc5a 103b 45b4 f73d
00000340: 2832 6a3c d44b 03be c67f 9e3c 3796 b6bd
00000350: 54ee 4e3d 5784 263d b0ca b83a 21c4 df3d
00000360: 9940 24be 4178 19be 3ae6 57bd b4e2 07bf
00000370: c404 ee3d 2557 903d 6609 dcbd 357d d93c
00000380: 1b62 69bd 3db3 44bc ae74 b0be cc35 e2bb
00000390: 99aa a8bd 53e5 dfbd a1e6 a43d 41f1 d83d
000003a0: 34ff 453e 0108 153e 3a4f 4cbe b6a0 69be
000003b0: ccee 04be c4e7 bbbe 55c2 bfbd 82da 023e
000003c0: 1037 3abd c2be d93d bff3 ebba 3141 393d
000003d0: 625e c23c 0242 00bf 022a b4bd d55a eebe
000003e0: d33a cc3c af16 39bc 9b1e 5a3c ee57 f33c
000003f0: 0768 ee3d c7ce 69bd c53d a4be 2221 273e
0.027222706 -0.13964123 -0.039136425 -0.05385208 -0.03546632 0.13681778 -0.2764395 0.17304109
0.08022859 -0.30555552 -0.03475671 -0.113907196 -0.11593022 -0.090978324 0.011219812 -0.051107552
0.05061955 0.12566805 0.041258954 0.051853687 0.063857645 0.12171069 -0.040229604 -0.0030231795
0.03468277 -0.07997018 0.052679807 -0.1444132 0.080541804 -0.05401598 -0.021139104 0.08383938
-0.1552842 -0.10511289 -0.18486977 -0.1478769 -0.038270812 0.24350622 0.011338435 0.070861295
0.07478033 -0.056755602 0.19666521 -0.383904 -0.19253741 -0.28652343 -0.47041813 0.015293544
0.03668813 0.058700696 0.1120027 0.20305857 0.09189088 0.045317437 0.14416909 -0.08761847
0.0588238 -0.048068397 -0.09094617 -0.113435514 0.0038644043 0.1741231 0.07139029 0.03334105
0.017017562 -0.09467112 -0.17859817 -0.008720971 0.16788794 0.17011246 -0.0028927021 0.24349964
0.020403614 0.02750048 0.108291894 0.11687774 0.11442532 -0.18842979 -0.017441329 -0.39844298
-0.14202332 0.3099319 0.2220073 -0.1997171 -0.062996835 -0.09072383 0.09721824 -0.0057803593
0.13041194 -0.075634316 -0.0035667755 0.11547398 0.16005848 0.016452817 -0.13846385 -0.2581419
0.018149072 0.24799539 0.10624969 -0.045993563 0.07540589 0.16931504 0.0033259233 0.18202226
-0.15833749 -0.13880585 0.0035718495 -0.100201 0.114880726 0.02341558 -0.040719073 0.08381086
0.025258673 0.15447403 0.048423942 -0.24524216 0.0032923901 -0.2008432 0.14631452 0.062454175
0.3257092 0.0029646028 0.013088535 0.099451475 -0.25760767 -0.09061508 0.014095579 -0.13290167
0.015583365 -0.30727604 -0.13905378 0.2311066 -0.3012672 -0.02388194 -0.06647824 -0.28926203
0.04649878 0.03903543 0.025305044 0.06001081 0.25685915 0.12896222 0.27393246 -0.06231911
-0.22066492 -0.1412803 0.10117329 0.0013882157 -0.081573345 -0.13507037 -0.17178631 -0.42533234
0.042819057 -0.2004744 0.34999406 -0.33908916 0.2549982 -0.22570871 0.07863989 -0.18915668
-0.075815424 -0.30592743 -0.44743213 -0.1780709 -0.11790075 -0.008543223 -0.087251954 0.20683035
0.010968658 -0.1856242 -0.03581731 -0.06619958 0.10424025 -0.005724307 -0.06159938 -0.0344602
0.090525664 -0.048276138 0.230163 -0.26480925 -0.20843752 -0.22647838 0.027091017 0.010836605
0.01498415 0.081749976 -0.093418226 0.010165409 -0.17774498 -0.02329422 0.16265523 0.25365222
-0.22470242 -0.025667246 -0.6742856 -0.13087702 -0.033526067 -0.009452803 -0.019865097 -0.001944693
-0.05357538 0.063982196 -0.07616931 -0.0633862 -0.09123822 0.11468578 0.0022026738 0.120949306
0.014294185 -0.12821895 0.019348036 -0.0891537 0.050520256 0.040653553 0.0014098492 0.109260805
-0.16040267 -0.1498728 -0.052709796 -0.53080297 0.11622003 0.070478715 -0.1074398 0.026548961
-0.056978326 -0.012005624 -0.3446402 -0.0069033857 -0.08235664 -0.10932412 0.080518015 0.105928905
0.19335634 0.14553834 -0.19952098 -0.22815213 -0.12981719 -0.3670026 -0.09363238 0.12778667
-0.045462668 0.10632087 -0.0018001719 0.045228187 0.023726646 -0.5010072 -0.08797075 -0.46553674
0.024930393 -0.011296912 0.013312961 0.029705014 0.116409354 -0.057081964 -0.32078376 0.16321233

fc1.bias f4 [64]
00000000: 3920 ce3d 753b 7c3b de54 2abe 5261 4dbd
00000010: d03f c73d 11be 0fbd 4e93 9abd 7cdd 7c3d
00000020: 81c5 563d 880b 39be 77e5 1a3e 0bfb 3c3e
00000030: baa8 0b3e 25c9 ad3d 179a 83bd 30a9 cabd
00000040: 0f2c 5c3d 8c0b 6fbd 7f34 96bc 10f3 2abe
00000050: c9b0 42be 5277 433c 082d cf3c d843 d4bd
00000060: 84f6 e2bd 4a82 0f3e c710 44bb 3652 86bd
00000070: 95fe 2a3e 6dd7 1a3e 48a3 b4bc 14aa 32be
00000080: 2eb8 093e bef0 a2bb 8345 3dbe c3cf 2d3d
00000090: 61f8 d7bd 4a40 4d3d 610f 99bd 20e4 1dbe
000000a0: 5225 5bbd 374e 493b b947 54be b88a 063e
000000b0: f707 54bd de0a 33be 1b4e 46bc 5eee e7bd
000000c0: cb4c 1abe 0657 2aba 0e56 2ebe 4919 553d
000000d0: 5882 1dbc f384 b3bd 98fa 1fbe 797b d2bb
000000e0: 420f 853c c8a5 d4bd 39ae f5bd d585 9dbd
000000f0: a7e1 273d b993 a23b 0c69 cbbb 50a4 393d
0.1006474 0.0038487588 -0.16633937 -0.05014164 0.09728968 -0.03509337 -0.075476274 0.06173466
0.05243445 -0.18070805 0.15126596 0.1845514 0.13638583 0.08485631 -0.06425875 -0.09895551
0.053752955 -0.05836062 -0.018335579 -0.16694283 -0.1901275 0.011930304 0.025290027 -0.10364503
-0.110821754 0.14014545 -0.0029917227 -0.06558649 0.16698678 0.15121241 -0.022050515 -0.17447692
0.13449165 -0.0049725464 -0.18483548 0.042434465 -0.105454214 0.05011014 -0.074736364 -0.15419054
-0.05350239 0.0030716786 -0.20730485 0.13138855 -0.05176541 -0.17484614 -0.012103583 -0.11324762
-0.15068357 -0.0006497953 -0.17025015 0.052026067 -0.009613596 -0.087655924 -0.15622938 -0.0064234105
0.016242627 -0.10383183 -0.11996121 -0.07691542 0.040986683 0.0049614576 -0.006207591 0.045322716

fc2.weight f4 [64, 64]
00000000: fb4b 65bb b050 e03d 3e06 293e 608a 783e
00000010: 08e4 bd3e 1f7e 39be 7fd0 43be aad2 4bbe
00000020: a076 253e 81ec fd3d 14e3 243d f15b cdbd
00000030: bf04 92be f5d2 243e cb0c 9a3d f478 e2bc
00000040: a0eb 0dbe b346 08be eb9c 5a3d 8653 f63d
00000050: 9383 01ba cdeb 48bd 0263 313c 22ab 7ebe
00000060: bf2e 8fbe 417a 0abe 4ec7 ed3d 1d15 fd3d
00000070: 5fea d8bb aa47 b7be 0d38 7f3d a0a7 ffbd
00000080: 0ac2 acbe 53a5 423d d7ab 083e c4aa 7fba
00000090: 0d01 893b 2274 dd3d 6b28 3b3d de91 96bd
000000a0: b6e9 1fbd e712 4abe 80d2 83be 9551 77be
000000b0: b4c0 df3d d8c5 b9be 5009 a1bd b55d 573e
000000c0: c7ee 9abe 5a9f 80bd 6034 273d 213a 35be
000000d0: 8b9f 0bbf c937 e7be 8420 90bc c74d 72bd
000000e0: 0b36 1e3d 5cc8 10be c5b1 a6be 9948 00be
000000f0: d1de ac3d 5cc2 083e 41f5 f6bc b4e3 58bd
00000100: fce7 103e 24eb c73d 7818 94bd 2d6a f63d
00000110: d2fd 043e 9893 b43d 242f a8bc 0327 ba3c
00000120: adc3 333d 8644 383b 052b 0e3d b451 4b3e
00000130: 397d 23be d3e6 aa3d 58de dbbd a2b8 003e
00000140: 535f a03d b82b 9d3d c072 d0bd 702b 413d
00000150: 7275 703c dcff 28bd 8681 903c 4efc 6cbd
00000160: 397f 72bc 533a 3b3e b4c2 15bd 97df d83d
00000170: 0094 7b3d 9717 653d 0831 773e be80 47be
00000180: a70c 00bd 2f51 0a3e e366 743c 1079 88be
00000190: 986f bebd 2766 153d 5e41 92bc bb58 f3bd
000001a0: 8734 5a3e 3f55 4e3b e029 d83d cda8 dc3c
000001b0: fa7a 39bd 07f7 13be 57da cabd 5679 07bd
000001c0: 0c61 96bd 2c8e a2be b492 be3d 953d 1b3e
000001d0: 6649 abbd 8137 38bd 8ca9 59be eebd 723d
000001e0: fafc 75bd ea2e f9bc 0fd2 043e fa46 553e
000001f0: 584f 0bbe 7076 683c b006 efbd 5c5e 0cbe
00000200: b19e 08bd 9d81 9fbd f951 c83d 5fa3 dfbc
00000210: 0f67 a73d 9ab9 973d a077 0abe 4f06 c13d
00000220: 2247 2b3e eb68 10bc 0e68 fb3c bfb4 5a3d
00000230: 8226 9a3d 7fb5 453e c731 c23d 2dfc e63d
00000240: a8fe 24be d986 ca3d 4c8f 7b3d ab33 54bd
00000250: c3d3 b3bd 30c8 563e 656b 87bc 69f1 06bd
00000260: fa17 c8bd ed0f 033e 7f87 ba3d 31bb 683e
00000270: e1f1 083e bd42 683e a7b4 91bd 1ad5 6abd
00000280: cfed a3bd 9bf9 5d3e 9cbc 09be 9509 1f3e
00000290: 0b85 323c 7d2a f43d a360 dcbb cd6f 983d
000002a0: e3c6 0d3f 0e71 74be ae93 483e f29f b7bd
000002b0: 2e89 093d 9154 01bd 224c dabc af8b debd
000002c0: dd6f e73b 9023 52be 3a01 9abb dd37 2c3d
000002d0: 14f1 9d3d 218b 15be 9582 c9be c7e9 a43c
000002e0: 52a5 26bc 5082 f0bd 3d1c 1e3e c3c4 e73d
000002f0: cc62 b3bd 2a64 cd3d aa93 2d3e 2747 b2bd
00000300: 4755 b4bd f44e 88be 6f6e 233d 0ee0 d0be
00000310: 6058 753e 8d6c cebc f221 8abb 8c22 d8bd
00000320: 8a1a 8bbe e80b 3a3e 6670 e6bd acea 1e3d
00000330: 8120 d73a e1d6 243d e855 72bd dbc6 4d3c
00000340: ed8f 99bd 090a 67bd e179 0abd a74e 743c
00000350: 8459 8cbd 8159 013d ddea 97bd 0736 e0bb
00000360: 1caa 49be 6433 a93d fb7c 0c3e 7ae1 093d
00000370: e4a8 3d3e e7d2 eebe 01be c73d 0af5 063d
00000380: 4955 40be 4423 233b f157 ed3d 5999 bd3d
00000390: fcc3 afbd 66fa 0e3e 14e5 453e 6dc0 13be
000003a0: f308 90be 4f3d 47be 160d ed3d 60ec 40be
000003b0: 9996 47bd b5aa 3e3d d192 4dbd ea87 12be
000003c0: efc1 fabc c56d 27be 3911 1c3d bd39 d63b
000003d0: 5e5e 4a3e d3b7 9bbc b8b8 7fbe 124c 1d3e
000003e0: 0bc2 2abe 6130 aabb d700 babc ceb0 4c3d
000003f0: f4f6 cabc 4d23 463e 551f 303e 81b1 333d
-0.0034987915 0.1095289 0.16506287 0.24271536 0.37088037 -0.18114518 -0.19122504 -0.1990458
0.16158533 0.12398625 0.04025562 -0.10027302 -0.28519246 0.16096099 0.07521971 -0.027645566
-0.13859415 -0.1330822 0.053372305 0.120276496 -0.00049405656 -0.049053002 0.010826828 -0.2486997
-0.27965352 -0.13523199 0.1161028 0.12357543 -0.006619736 -0.35796863 0.062309314 -0.12483144
-0.3374179 0.047520947 0.13346802 -0.0009752924 0.0041810335 0.10813166 0.045692842 -0.07352041
-0.039041243 -0.19733773 -0.25746536 -0.24152215 0.10925427 -0.36283755 -0.07863104 0.2103184
-0.30260298 -0.06280394 0.040821433 -0.17697956 -0.5454032 -0.45159748 -0.01759363 -0.059156206
0.03862576 -0.14138931 -0.32557502 -0.12527694 0.08440936 0.13355392 -0.030146243 -0.05295153
0.14150995 0.097616464 -0.072312295 0.1203197 0.1298745 0.08817214 -0.02053029 0.02272368
0.043887783 0.0028117015 0.034708995 0.19855386 -0.15965737 0.083448075 -0.10735768 0.12570432
0.07830682 0.07674354 -0.10178137 0.047160566 0.014676439 -0.04125963 0.017639887 -0.057857804
-0.01480084 0.18283968 -0.036562636 0.105895214 0.06142044 0.0559307 0.24139798 -0.19482705
-0.031262066 0.13507532 0.014917108 -0.26654863 -0.092986286 0.036474373 -0.017853435 -0.11882158
0.213091 0.0031483916 0.10554862 0.02693596 -0.045283295 -0.14449702 -0.09904926 -0.0330747
-0.07342729 -0.31749094 0.09305325 0.1516021 -0.08363609 -0.044974808 -0.21256083 0.059263162
-0.06005571 -0.030417878 0.12970756 0.20827857 -0.13604486 0.014188394 -0.116711974 -0.1370787
-0.033354465 -0.07788394 0.0978126 -0.027299581 0.08173954 0.074084476 -0.13522196 0.094250314
0.16726354 -0.008814077 0.030689266 0.05339503 0.07526876 0.19307517 0.094821505 0.112785675
-0.16112769 0.098890014 0.061415955 -0.051807087 -0.08780625 0.20974803 -0.016530702 -0.03294507
-0.09770198 0.12799044 0.09107875 0.22727658 0.1337352 0.22681709 -0.07114535 -0.057332136
-0.08004343 0.21677248 -0.13450855 0.15530999 0.010895978 0.119221665 -0.006725387 0.07443199
0.553816 -0.23871252 0.19587585 -0.08966054 0.03357809 -0.03157479 -0.026647631 -0.10866486
0.0070628957 -0.20521379 -0.0046998532 0.042045463 0.07711998 -0.14603855 -0.3935744 0.020131005
-0.010171251 -0.11743605 0.1544046 0.11316826 -0.087590784 0.100288704 0.1695086 -0.087049775
-0.08805328 -0.26622736 0.03990024 -0.4079594 0.23959494 -0.025198245 -0.0042154724 -0.10553464
-0.27168685 0.18168604 -0.11251907 0.03879802 0.0016412885 0.040243987 -0.059163958 0.012559618
-0.07498155 -0.056406055 -0.03380764 0.01491133 -0.06853011 0.0315795 -0.074178435 -0.006842378
-0.19693798 0.08261755 0.13719551 0.033662297 0.18521458 -0.4664528 0.09753037 0.03294853
-0.18782534 0.0024892846 0.11589039 0.09257764 -0.08582303 0.13962707 0.19325668 -0.14428873
-0.28131828 -0.19456981 0.115747616 -0.1884017 -0.048727605 0.046549518 -0.050188843 -0.1430966
-0.030610053 -0.16350468 0.038102362 0.0065376447 0.1976256 -0.019008553 -0.24972808 0.1536105
-0.16675584 -0.0051937555 -0.022705479 0.0499733 -0.02477596 0.19349404 0.17199452 0.043870453

fc2.bias f4 [64]
00000000: d5f3 ab3b 00b3 38bc 063b b23d 07a9 ae3c
00000010: a1a0 bb3d 87b3 b7bd e372 10be 840a 53bd
00000020: 5199 a83d 8ae5 8c3e b761 f6bd ef21 0a3e
00000030: ff9e 453e 89fb f0bd fd0c d1bd c63d 983d
00000040: 4391 8f3c decd 5fbd 2c71 98bd 77e2 0d3e
00000050: 69df 313d b14c 803e cc4a ddbd ca49 bdbd
00000060: 7f31 1fbe 300a c1bd e70f 333c 34b8 093d
00000070: 55e1 1abd 104c 843d 08e4 f43c 3f57 ecbd
00000080: 69c2 803d 298a 8e3d 8a6f 20bc 33aa 94bd
00000090: 855a 8abd f06e d2bd e09c 233d 36c9 21bd
000000a0: 272c 97bd 5fe3 9e3e 2ad8 bb3d bf8f 8abd
000000b0: 17e3 473b eef4 9ebd a873 74ba 681f 14be
000000c0: 8432 753d 56e0 15bd 6d7f d7bd 3e52 703e
000000d0: 9db8 513c 9dff 84bd d2b0 e23d 7d86 11be
000000e0: 4947 34be 66ec 75bd 3520 6f3d f2d4 85bd
000000f0: d7c0 ac3d a5c8 623e 72a1 f53d 82af b3bc
0.005247573 -0.011273146 0.08702664 0.021320833 0.09161497 -0.08969789 -0.14106326 -0.0515237
0.08232368 0.27518874 -0.120303564 0.13489507 0.19298933 -0.117667265 -0.102075554 0.07433657
0.01752532 -0.05463969 -0.07443461 0.1385592 0.04342595 0.2505851 -0.10805282 -0.0924259
-0.15546225 -0.09425771 0.010929084 0.033622935 -0.03781255 0.0645982 0.02989389 -0.11540078
0.06287081 0.06959946 -0.009792218 -0.072590254 -0.067555465 -0.10275066 0.03994453 -0.03949853
-0.07381468 0.31032845 0.091720894 -0.06765699 0.0030500346 -0.077615604 -0.00093250955 -0.14465106
0.05986263 -0.036590897 -0.105223514 0.23468873 0.012800363 -0.06494067 0.11068882 -0.1421146
-0.17605318 -0.0600399 0.058380324 -0.06534757 0.08435219 0.22146852 0.11993684 -0.021934275

fc3.weight f4 [4, 64]
00000000: e11a 98bd 6fcf bf3d 6318 d93d f61e 893d
00000010: 7237 913e b17d 4d3e de8e 1c3e 4fc1 03be
00000020: 6536 993d 53c6 c63d ac39 febd d8e8 253e
00000030: d7bf a03d c3da 4dbe e27a 04bd e3c7 67bd
00000040: b323 4a3e 31b3 c2be 2e9d f4bd 94d5 123e
00000050: c746 a13e 80d5 793d 1f4e f53d 2bf7 9c3c
00000060: 4c15 e6bd 7536 633d d6f2 89be dffd 82be
00000070: e84a 573e 9d8f 6e3e e8d0 55be 32f4 0f3e
00000080: d966 283e 70c7 8a3e 6c82 a43e b2a3 133e
00000090: 624a 7bbd 3ed3 b2bd e23c 1dbd e172 943d
000000a0: 0383 efbd bcb8 f43d a5cf d7bd 5da5 303d
000000b0: d9bc 0c3e 41ca 25be 5a40 b33d f12c 053d
000000c0: 5cb9 be3d a508 683e 014e cdbd f209 fd3d
000000d0: e3cf 0d3e 3d2b 1f3d cd4d 3e3e f76c 173e
000000e0: a163 bcbd 8e38 29bc 6839 353e 5efa f53d
000000f0: a826 a0be b115 2c3e 255b 263e a306 143e
00000100: b8cf 6a3e 69e3 13be 58d6 4d3e 8ac0 623d
00000110: e050 af3e b84a 983d 5991 a1bd 16c7 46be
00000120: 9aa8 5cbd c2e0 ad3d 0b56 8ebd 23da 373e
00000130: 38a6 ab3d 0adc 55be 9b0a 30bc c0b1 fa3d
00000140: f05a 153e 44a5 103e 52b8 71be 47eb b83d
00000150: 8e90 343e 6084 c03d c156 10bd 7a7a 5b3e
00000160: 6190 3b3e 046d 1c3e ba9f 1c3c c971 a8bd
00000170: df13 1f3d a4bb 353e e368 f83b f8b5 163e
00000180: 5878 453e 1049 d13d 7ffa 653e aff1 0c3e
00000190: d2d6 023e 4d0c c1bd 560e 933e a40b 3b3c
000001a0: e8f0 d93d 9d77 1c3e 28ff 953c a87d 043e
000001b0: 9db3 243e d0d6 32bc a0ee 3c3e 9246 afbe
000001c0: a964 3b3e 040f 0c3e e3ab 17be a91d c43d
000001d0: 59d5 823e c9d0 893d 7751 513e 4737 2f3b
000001e0: 3cf1 c0bd da97 c43d ae1e 3c3e 597d 8e3d
000001f0: 8684 39be fb4e 973c 9756 5f3d 14f2 253e
00000200: 2f2a c8be 314e 043e b9a6 8e3e 7c2e b83e
00000210: 937a a43e 9a6d c73c 27b0 7e3e 4bb4 ff3b
00000220: b8f8 6ebd d100 bb3d eebd 64be 94e2 8e3e
00000230: 359b 453e 6ef3 c3be 686e 7fbd d283 523e
00000240: 1b84 8b3d 3be3 85be 2c52 32be 3390 453d
00000250: dfdd 33be 2d3f 413e 7f3b c6be a88b a2be
00000260: 9872 6c3e 3f18 95bc 27fc 86be 0611 40be
00000270: cb81 7b3e 4e4b 673e 41c0 083e 7fff 3ebe
00000280: a8eb 003e fba2 1abe 5c8f 0b3d 94e1 cd3e
00000290: 036e 9f3d aa42 99be 5f1a 983e dd9c 423e
000002a0: 7b3f bf3e e9e2 0e3e 07cc 433e f862 ab3d
000002b0: 04f6 903d 20f3 65bc f40a 953d 7ef4 b93e
000002c0: b728 063e 55aa fdbd c320 c4be f498 893e
000002d0: 0777 5b3d 084e b2bb 7f76 f83d ddf7 803b
000002e0: a411 91bd 8f73 a3bd 2cd6 083d 8e12 bd3d
000002f0: 85fa c3be b812 243e 5f68 73be c7ed 013e
00000300: b71b 8e3e f8dd ff3d 5b81 9b3d 2ecf afbd
00000310: 054b d1bd 71b4 793e 29a2 86be d03c 9bbb
00000320: 0021 273e cea8 403e e957 443e 256b 953d
00000330: 9cdb 053e 8550 55be d9d2 5f3d 6bca 1bbc
00000340: d375 ad3e b900 953e 0a31 81be 2710 393e
00000350: fd8c ac3d 349a 283e 5f8e 88be 5a53 aa3e
00000360: 3eec e53d 74c6 b4be 9fb6 d5bd f2c9 143e
00000370: 9e7b 4c3e 5721 18bd d1b1 a0be 6c82 f83d
00000380: 645a b43d 23a6 7a3e a34b 53bd 5331 06bd
00000390: bf2f 52be 9482 5f3c ba1c ce3d abf3 1b3e
000003a0: 3109 89be f528 273e 86c0 d33c 7f2f 55be
000003b0: f7e8 b23e 6c37 acbe 6f2a ca3d d652 f7bd
000003c0: 2203 4c3e 7bac 08bd 11ff 0f3c 77d4 a53d
000003d0: a430 1d3e 4a83 a93e 740b af3c 0bde a13e
000003e0: 0af6 42bd 6aa3 a2be 80d3 263e 5293 1dbe
000003f0: a8a0 7bbe 2e49 aa3d 731f 4dbe f656 003e
-0.07427002 0.09365737 0.106003545 0.066953585 0.28362614 0.20067479 0.15288875 -0.1286671
0.07481078 0.09705796 -0.12413344 0.16202104 0.078490905 -0.20102982 -0.032343753 -0.05658711
0.1974018 -0.38027337 -0.11944042 0.14339286 0.3149931 0.060994625 0.11977791 0.019160828
-0.11234531 0.055471856 -0.26943082 -0.25584313 0.21024668 0.23296972 -0.20880473 0.14057997
0.16445483 0.27105284 0.32130754 0.14417914 -0.061350234 -0.087316975 -0.03838814 0.07248474
-0.116949104 0.11949298 -0.10537652 0.043126453 0.13743915 -0.16190435 0.087525085 0.032513563
0.09312698 0.22659548 -0.10024644 0.123554125 0.13848834 0.038859595 0.18584366 0.1478766
-0.0919869 -0.010328425 0.1769768 0.120106444 -0.31279492 0.1680515 0.16245706 0.14455657
0.22930801 -0.14442219 0.20101297 0.0553594 0.3424139 0.074361265 -0.07889051 -0.19411883
-0.05387173 0.08490135 -0.06950005 0.17954306 0.08381313 -0.2088472 -0.010744716 0.12240934
0.14585471 0.14125544 -0.23605469 0.090292506 0.17633268 0.094002485 -0.035238985 0.2143344
0.18316795 0.15275961 0.009559566 -0.08224828 0.03883731 0.1774736 0.007580863 0.14717853
0.19284189 0.10219014 0.22458838 0.1376407 0.1277726 -0.09426174 0.28721875 0.01141635
0.10641652 0.15280004 0.018310145 0.12938559 0.16084142 -0.010915473 0.18450403 -0.34233528
0.18300118 0.13677603 -0.14811663 0.0957597 0.25553396 0.06729276 0.20441233 0.0026735829
-0.09421012 0.09599276 0.18371078 0.06957502 -0.1811696 0.018470278 0.054525938 0.16205627
-0.39094684 0.12920453 0.27861574 0.35972965 0.32124767 0.024344254 0.24871884 0.007803475
-0.058342665 0.09131015 -0.22338077 0.2790724 0.19297488 -0.3827166 -0.06236115 0.20558098
0.068123065 -0.26149926 -0.17414159 0.048233222 -0.17565106 0.18871756 -0.38717267 -0.31747174
0.23090589 -0.018200038 -0.26364252 -0.18756494 0.24561231 0.2258732 0.13354589 -0.18652152
0.12589896 -0.15101235 0.034072265 0.40211165 0.07784655 -0.29933673 0.2970762 0.19005151
0.3735312 0.13953747 0.19120799 0.08368486 0.07078174 -0.014035016 0.0727748 0.36319345
0.13101469 -0.12386004 -0.38306245 0.26874506 0.05358031 -0.005441431 0.12131976 0.0039357976
-0.07083443 -0.079810254 0.033407375 0.09232055 -0.3827707 0.16022766 -0.23770283 0.12688361
0.2775552 0.12493509 0.07593032 -0.08584438 -0.10219387 0.24385239 -0.26295593 -0.004737474
0.16321182 0.18814394 0.1917416 0.07295827 0.13072056 -0.20831497 0.05464444 -0.009508709
0.33878955 0.29102114 -0.25232726 0.18072568 0.08425329 0.16465074 -0.2667112 0.33266717
0.112267 -0.35307658 -0.10435223 0.14530161 0.19969031 -0.03714117 -0.31385663 0.12134251
0.08806303 0.24477439 -0.051585805 -0.032761883 -0.20526026 0.013641972 0.10064073 0.1522967
-0.26764825 0.16324218 0.025848638 -0.208189 0.34943363 -0.33636034 0.09871375 -0.120763466
0.1992307 -0.033367615 0.00878884 0.08097165 0.15350586 0.33107978 0.021367766 0.31614718
-0.047597922 -0.317653 0.16291618 -0.1538823 -0.24573004 0.08314739 -0.20031528 0.12533173

fc3.bias f4 [4]
00000000: 3aec 6a3e 3d2a 4b3e ade9 603d 8019 a93d
0.22941676 0.19840331 0.05491035 0.08256817

state_value.weight f4 [1, 64]
00000000: 2804 5fbd 64aa bcbd 809e dc3b e421 c2bd
00000010: 20e5 bcbb d021 8cbc e23d c6bd ec27 67bd
00000020: d8cc 5f3d 00c8 12bd 32f2 e1bd 8e45 d03d
00000030: 0ca1 1fbd 10d5 763c 40de cd3d e8f0 7e3d
00000040: c6eb cebd 3e1f e23d c4b8 0ebd 2c9b 023d
00000050: acef 633d 7cb6 323d 24fa ae3d 540e 67bd
00000060: cc40 be3d acbb a23d 7285 e0bd 30e4 3ebd
00000070: c63b dd3d 8402 bebd daa3 e7bd 8a1a 9e3d
00000080: c46a 343d 008c 603c d623 cc3d 20b0 c93b
00000090: 649e f93d 96e2 a9bd 8803 dcbd 30ae debc
000000a0: 9cdf f83d 18e1 dabd e43a 533d 481a 033d
000000b0: 5ccd 58bd f4f1 d1bd 9063 563d ac02 403d
000000c0: c043 56bb 804e 4a3d 96fe 8b3d 524e b4bd
000000d0: 0a4b ddbd 4047 aabc 705e 93bc e0a9 44bd
000000e0: d4c1 063d 5a73 c4bd 04c2 f83d 7010 cebc
000000f0: c8ff 8ebd d09e a3bc 10b6 cabd a484 ddbd
-0.054447323 -0.09212187 0.006732762 -0.094791204 -0.0057646185 -0.017105967 -0.09679772 -0.056434557
0.054638714 -0.035835266 -0.11032523 0.101695165 -0.038971946 0.0150654465 0.100521564 0.062241465
-0.10103564 0.11041115 -0.034844175 0.031886265 0.05564849 0.043631062 0.08543804 -0.05641015
0.09289703 0.07945952 -0.10962953 -0.046604335 0.108024165 -0.092778236 -0.11310549 0.07719906
0.044047132 0.013705254 0.09967773 0.006155029 0.12188414 -0.08295171 -0.10742861 -0.027182668
0.12152025 -0.106874645 0.051569834 0.032007486 -0.05293022 -0.10251227 0.052341044 0.046877548
-0.003269419 0.04939127 0.06835668 -0.08804001 -0.10805328 -0.020785928 -0.017989367 -0.048013568
0.032899693 -0.09592314 0.121463805 -0.025154322 -0.0698238 -0.019973189 -0.09898007 -0.10816315
