pth_checkpoints/checkpoint.pth (torch_old, 28901 bytes, 7 tensors)

fc1.weight f4 [64, 37]
0	0x3c831d9a	0.016005326
1	0x3df15146	0.1178308
2	0xbe38b7a0	-0.18038797
3	0xbe2c51e0	-0.16828108
4	0xbd6b684d	-0.057472516
5	0x3cce45dd	0.025179798
6	0xbc7e0aed	-0.015505535
7	0x3e1c30c9	0.15252985
8	0xba200c48	-0.00061053457
9	0x3d1a405e	0.03765904
10	0xbd8f9290	-0.070103765
11	0xbcad1c83	-0.02113176
12	0xbe0e0d96	-0.1387237
13	0xbd12a4c6	-0.03580167
14	0xbd883de5	-0.066524304
15	0xbc1179a8	-0.008879103
16	0x3dad2b79	0.084555574
17	0x3dbb6142	0.0914941
18	0xbddafec2	-0.106931224
19	0xbdb5741b	-0.08860036
20	0x3db98626	0.0905879
21	0x3deceb68	0.11568338
22	0xbd8cd86a	-0.06877215
23	0x3dd472fa	0.103734925
24	0xbcca1b7a	-0.024671305
25	0x3d905707	0.07047849
26	0x3e0e6740	0.13906574
27	0xbe2b9dc1	-0.16759397
28	0xbd03b819	-0.03215799
29	0xbd3b8412	-0.04578025
30	0xbd7089fc	-0.058725342
31	0x3e0fe422	0.1405187
32	0xbdcfc95d	-0.10145829
33	0xbd8b1224	-0.067905694
34	0xbdc1c244	-0.09460881
35	0xbe260ff3	-0.16217022
36	0xbdd86130	-0.10565412
37	0x3e218994	0.15775138
38	0x3de713ed	0.112830974
39	0x3db8c71e	0.090223536
40	0x3d2ace7e	0.041700833
41	0xbd695762	-0.0569681
42	0x3d9888ce	0.074479684
43	0xbe1bc957	-0.15213524
44	0xbdc83a4b	-0.097767435
45	0xbd6d2620	-0.057897687
46	0x3dee5c2d	0.11638675
47	0x3dee8598	0.11646575
48	0xbd13a31e	-0.036044233
49	0x3b0a0433	0.0021059632
50	0x3e1e267f	0.15444373
51	0x3e3b643a	0.18299952
52	0x3db9ba1f	0.09068703
53	0x3d3b3b48	0.045710832
54	0x3e1c3de3	0.15257983
55	0xbdb22aed	-0.08699594
56	0x3d871b7c	0.06597039
57	0xbdc24780	-0.09486294
58	0xbd918147	-0.07104736
59	0xbd5a2cac	-0.05326526
60	0x3d6e7246	0.05821445
61	0x3de36dd3	0.11104932
62	0xbd908ff1	-0.07058705
63	0x3d7ed937	0.06221887
64	0x3dbe00b5	0.092774786
65	0x3d357f9f	0.044311162
66	0x3c77e3c8	0.015129991
67	0x3da1c776	0.07899372
68	0x3dddfd03	0.10839274
69	0x3e2e7eb7	0.17040525
70	0xbda517ba	-0.08061166
71	0xbd84d172	-0.06485261
72	0x3d82cee1	0.06387115
73	0x3df60463	0.120125555
74	0x3e163ca8	0.14671576
75	0x3e00a6e6	0.12563667
76	0xbc6f100b	-0.014591227
77	0xbdef1aec	-0.11675057
78	0xbce4a8a1	-0.02791244
79	0xbdbcf6b9	-0.09226746
80	0xbe22c5d8	-0.15895784
81	0x3e0d8fbc	0.13824362
82	0x3de0c463	0.10974958
83	0xbe3825f4	-0.17983228
84	0x3c996083	0.018722778
85	0xbca28ca5	-0.019842455
86	0xbd398b3b	-0.045298796
87	0xbdd014f4	-0.101602465
88	0x3d6afd08	0.057370216
89	0xbdade39f	-0.08490681
90	0x3da9dad8	0.08293694
91	0x3d65c1a8	0.056092888
92	0x3dba358c	0.090922445
93	0x3d3a8bcd	0.04554348
94	0xbe3567f1	-0.17715432
95	0xbdf0bb8e	-0.11754523
96	0x3dc4ae3b	0.09603544
97	0x3c6cf388	0.014462359
98	0xbe21128a	-0.15729728
99	0x3c89e550	0.016832978
100	0x3e60aa68	0.21940005
101	0x3d94c648	0.07264382
102	0xbdf591d0	-0.11990702
103	0xbd22cdc8	-0.03974703
104	0xbe23367a	-0.1593875
105	0xbb09863e	-0.0020984556
106	0xbdffe773	-0.12495317
107	0xbe2a930a	-0.16657653
108	0xbbacefce	-0.0052776104
109	0x3d4b3066	0.049606703
110	0xbd48eb50	-0.049052536
111	0x3dafa7df	0.08576941
112	0xbdc7fb33	-0.09764709
113	0x3e39c192	0.18140247
114	0x3e0b1648	0.13582718
115	0xbe07a169	-0.13245167
116	0xbd0ece93	-0.034864973
117	0xbd223866	-0.039604567
118	0x3dd09cd0	0.101861596
119	0x3c9a7ea6	0.018859219
120	0x3d2994ca	0.041401662
121	0x3d3251fd	0.04353522
122	0xbdf58b61	-0.11989475
123	0x3dca4d39	0.0987801
124	0xbe42e612	-0.19033077
125	0xbdef722c	-0.116916984
126	0xbde2d822	-0.1107638
127	0x3bf3109a	0.0074177505
128	0xbdb7f1a2	-0.08981635
129	0xbdecb3b1	-0.11557711
130	0xbc3d99ba	-0.011572296
131	0x3c46db52	0.012137251
132	0xbd78a0f1	-0.06070036
133	0xbc3787db	-0.011201824
134	0x3e24a0aa	0.16076913
135	0xbd2b2c73	-0.041790437
136	0xbbdd0750	-0.0067452565
137	0x3c923c4e	0.017851021
138	0x3c213ab0	0.009840652
139	0x3e091f57	0.13390861
140	0x3e1114ab	0.1416804
141	0x3db60853	0.088883065
142	0x3e0bb406	0.13642892
143	0x3cb525d1	0.022112759
144	0xbdd34126	-0.103151605
145	0xbdd327f0	-0.10310352
146	0x3d878a7d	0.066182114
147	0xbc9258a7	-0.017864538
148	0xbd6c5770	-0.057700574
149	0xbe6079cd	-0.21921463
150	0xbe17262d	-0.14760657
151	0xbdf8aa0f	-0.12141811
152	0xbd6503dc	-0.055911884
153	0x3da8a238	0.08234066
154	0x3dbf8cc6	0.09353022
155	0xbe0c0faf	-0.13677858
156	0x3da1be1c	0.078975886
157	0xbdfb98a5	-0.12284974
158	0x3d07c3da	0.033145763
159	0xbdf323a9	-0.11872036
160	0xbce4da08	-0.027935997
161	0xbe1046b1	-0.14089467
162	0xbe2ae1c2	-0.16687682
163	0xbe268490	-0.16261506
164	0xbd96daf0	-0.07365978
165	0x3d183f86	0.037169956
166	0xbd9d4f88	-0.07681185
167	0x3d198ddb	0.0374888
168	0xbe11e2d4	-0.14246684
169	0xbc2bc234	-0.010483313
170	0x3e162a09	0.14664473
171	0xbde2b362	-0.11069371
172	0x3da1266e	0.07868658
173	0x3d9354d7	0.07193916
174	0xbe0fa2ca	-0.14026943
175	0x3d9263f5	0.071479715
176	0xbcc59b2a	-0.02412184
177	0xbd54e552	-0.05197651
178	0x3dc508bf	0.09620809
179	0xbe085e3c	-0.13317198
180	0x3d165c8c	0.036709353
181	0xbc990728	-0.01868017
182	0x3dba2742	0.09089519
183	0x3d4db5d9	0.05022225
184	0x3d8bb44e	0.068215
185	0x3d522701	0.05130673
186	0x3cf76637	0.030200107
187	0xbd376f0b	-0.044783633
188	0xbdc15c1e	-0.09441398
189	0x3db5f68c	0.08884916
190	0x3e0ee04e	0.13952753
191	0x3da307cd	0.07960472
192	0xbdc27fa6	-0.09497003
193	0x3d71cbb3	0.059032153
194	0xbded78b3	-0.11595287
195	0xbdb4ee36	-0.08834498
196	0xbdacbd7e	-0.0843458
197	0x3d8c8df3	0.06863012
198	0xbd80853c	-0.062754124
199	0x3bc14f18	0.0058993213
200	0x3c4043fd	0.01173496
201	0x3e10884f	0.14114498
202	0xbe08bfa3	-0.13354354
203	0xbda0de25	-0.07854871
204	0xbdc5db35	-0.09660951
205	0x3dfd8ede	0.123807654
206	0xbceb1d83	-0.028700596
207	0x3e2ac44f	0.16676448
208	0x3cdbe5e0	0.026843011
209	0x3d3eacaf	0.046551403
210	0x3c3af787	0.011411554
211	0xbce059bb	-0.027386537
212	0x3ceb3a48	0.028714314
213	0x3b92d5c1	0.004481048
214	0x3bdb2eed	0.0066889436
215	0x3d2ce905	0.042214412
216	0xbdeffe18	-0.117183864
217	0xbdabc374	-0.08386889
218	0x3e19d724	0.15023476
219	0xbdfe36c5	-0.1241279
220	0xbc8774a1	-0.016535105
221	0x3e2434d9	0.16035785
222	0x3d17a0e0	0.037018657
223	0xbc6fb89e	-0.0146314185
224	0xbdfbfce6	-0.12304096
225	0x3db71fa5	0.089415826
226	0xbe05df87	-0.1307355
227	0xbcb5243a	-0.022112
228	0xbd9836ec	-0.074323505
229	0xbd369c12	-0.044582434
230	0x3b256b61	0.0025241005
231	0x3de80f41	0.113310345
232	0xba88bc69	-0.0010432127
233	0x3dfdd350	0.1239382
234	0x3df7e127	0.12103491
235	0xbe158cd0	-0.14604497
236	0x3d1159c6	0.035486005
237	0xbdde0070	-0.10839927
238	0xbd9a07f0	-0.07521045
239	0x3adf95c8	0.0017058188
240	0x3db4c119	0.08825893
241	0x3de12a19	0.109943576
242	0xbdb183f0	-0.08667743
243	0x3d5bedc1	0.053693537
244	0x3d9f70f8	0.07785219
245	0xbe2b6011	-0.16735865
246	0x3db51219	0.088413425
247	0xbdf44382	-0.119269386
248	0x3d49c3fd	0.049259175
249	0xbd95ec20	-0.07320428
250	0xbd99d8dc	-0.07512066
251	0x3c5e79a1	0.013578803
252	0x3e07961d	0.13240857
253	0xbd8bfc37	-0.068352155
254	0xbdf8c542	-0.12146999
255	0xbd244df1	-0.040113393

fc1.bias f4 [64]
0	0x3e199093	0.14996557
1	0x3c4a5023	0.012348208
2	0xbe20c1b9	-0.156989
3	0xbd9e2ee1	-0.07723785
4	0x3e1220f3	0.14270382
5	0xbca889e9	-0.020573573
6	0xbdb5c9d6	-0.08876388
7	0x3d984dc7	0.0743671
8	0x3c386c90	0.011256352
9	0xbe1df53e	-0.15425584
10	0x3e1f5e4a	0.15563312
11	0x3e064059	0.13110484
12	0x3e099433	0.1343544
13	0x3d8823ed	0.06647477
14	0xbd64a878	-0.055824727
15	0xbd5d7481	-0.054066185
16	0x3da7dc20	0.081962824
17	0xbd2b34ae	-0.041798286
18	0x3cdb226e	0.026749816
19	0xbe155068	-0.14581454
20	0xbda83420	-0.08213067
21	0x3d55435c	0.052066192
22	0x3c0b651b	0.008507992
23	0xbdc0d788	-0.09416109
24	0xbe21a03b	-0.1578378
25	0x3e106f41	0.1410494
26	0xbd58e0b7	-0.05294868
27	0xbe2ff859	-0.17184581
28	0x3e0e85e1	0.13918258
29	0x3d80b1f7	0.06283944
30	0xbdac8fc2	-0.08425857
31	0xbe0ef86b	-0.13961951
32	0x3e23faa1	0.16013576
33	0xbcd53e68	-0.026030734
34	0xbda8a2ce	-0.082341775
35	0x3d98d25f	0.07462
36	0xbc6213fa	-0.013798708
37	0xbb0770b0	-0.0020666532
38	0xbd9c65c7	-0.076366
39	0xbe0f71d5	-0.14008267
40	0xbdfd55f8	-0.12369913
41	0xbd16e8f0	-0.03684324
42	0xbe032495	-0.12806924
43	0x3e4ae5a0	0.19814157
44	0xbad1bbe7	-0.0016001434
45	0xbd4a0230	-0.049318492
46	0x3d5d655d	0.054051746
47	0xbe0bb499	-0.13643111
48	0xbdcbc019	-0.09948749
49	0x3d8d882a	0.06910737
50	0xbe069250	-0.13141751
51	0x3d8ffc09	0.07030494
52	0xbc44f462	-0.012021156
53	0xbdbd0692	-0.09229769
54	0xbe163f5b	-0.14672606
55	0x3d217bd4	0.039424732
56	0x3d810d66	0.06301384
57	0xbcad883e	-0.02118313
58	0xbe07654e	-0.13222238
59	0xbdbf415b	-0.093386374
60	0x3d3fa4ca	0.046788014
61	0x3c67a69c	0.014138844
62	0x3cdbdc40	0.026838422
63	0x3ceec96b	0.029148778

fc2.weight f4 [64, 64]
0	0xbc2444ce	-0.01002617
1	0x3d305164	0.04304637
2	0x3dd2a33e	0.10285042
3	0x3e06ac2f	0.1315162
4	0x3da1e0df	0.07904219
5	0xbd232cb5	-0.039837558
6	0xbc82a434	-0.015947439
7	0xbcb84e36	-0.022498231
8	0x3d6f94d7	0.058491554
9	0x3d44f92f	0.048089202
10	0x3cc07e98	0.023497865
11	0xbdeccc57	-0.11562412
12	0xbd8f5670	-0.069989085
13	0x3e02d0f1	0.12775017
14	0xbd4362ec	-0.04770176
15	0xbce26609	-0.027636545
16	0xbdaa1445	-0.08304647
17	0xbd0e2a7b	-0.03470848
18	0x3c01e022	0.007926973
19	0x3cb8302e	0.022483911
20	0xbd8f16d6	-0.069867775
21	0xbcbfaf5e	-0.023399051
22	0x3db6ec0a	0.0893174
23	0xbc228f7a	-0.009921903
24	0xbde0792f	-0.10960614
25	0xbb528bd9	-0.0032126813
26	0x3e36c305	0.17847832
27	0xbc6bb608	-0.014386661
28	0xbb4af728	-0.003097007
29	0x3d0622df	0.0327481
30	0x3df8366f	0.121197574
31	0xbdb69a41	-0.0891614
32	0x3e06c57b	0.1316127
33	0xbcacc68d	-0.02109077
34	0x3ced42ce	0.028962519
35	0x3b488682	0.003059775
36	0xbdd8fa1d	-0.1059458
37	0x3dda154d	0.10648594
38	0x3d824019	0.06359882
39	0xbda1e864	-0.07905653
40	0xbdad8dd0	-0.08474314
41	0x3ae5592b	0.0017497888
42	0x3d4b33f4	0.049610093
43	0x3b32d5bf	0.0027288047
44	0x3d699c1f	0.057033654
45	0xbda3972a	-0.07987817
46	0xbda3dbef	-0.080009334
47	0x3d896248	0.06708199
48	0xbdc95a1e	-0.098316416
49	0xbd7bcfee	-0.061477594
50	0x3bcaf39f	0.0061935927
51	0xbaf52b3c	-0.0018704901
52	0xbddc89e1	-0.10768486
53	0xbdf37f94	-0.11889568
54	0x3d03d83f	0.03218865
55	0xbbbc015f	-0.005737468
56	0xbd8394f7	-0.06424897
57	0x3c906364	0.017625518
58	0xbdea78ec	-0.11448845
59	0x3ce4e428	0.027940825
60	0x3d995692	0.07487215
61	0x3dcc15cf	0.09965097
62	0xbe0c23d0	-0.13685536
63	0xbd392342	-0.04519964
64	0x3dbe6325	0.09296254
65	0x3dfba60e	0.12287532
66	0xbdae386d	-0.08506856
67	0x3d838eeb	0.06423744
68	0x3d5122d2	0.051058598
69	0x3d92dd43	0.071711086
70	0xbdb814bf	-0.08988332
71	0x3e0311af	0.12799715
72	0xbd6967b3	-0.05698366
73	0xbd5122c4	-0.051058546
74	0x3cc4a890	0.024006158
75	0x3dbdbf1b	0.09264966
76	0xbd78c9d6	-0.06073936
77	0x3d9ce6fd	0.07661245
78	0x3c20a208	0.009804256
79	0x3d954c6c	0.07289967
80	0x3de496ab	0.1116155
81	0x3d08f8c1	0.033440355
82	0xbd9b5ec0	-0.075864315
83	0xbceffee8	-0.029296353
84	0x3cdfdc85	0.027326832
85	0xbdada25d	-0.08478234
86	0x3d4debf6	0.050273858
87	0xbd1e725d	-0.038683284
88	0xbcc4edbe	-0.024039146
89	0x3d483147	0.04887512
90	0xbdc9dfbd	-0.09857128
91	0xbde2851c	-0.11060545
92	0x3d8eb020	0.06967187
93	0xbe16a762	-0.14712289
94	0x3e1c31b5	0.15253337
95	0xbdb4155f	-0.08793139
96	0xbb9f21e2	-0.004856334
97	0x3d72490b	0.05915169
98	0x3d8a2a8b	0.06746396
99	0xbd1d58cc	-0.03841476
100	0x3d32061d	0.04346286
101	0x3d41e322	0.04733575
102	0x3e183cf1	0.14866997
103	0xbdbb64a4	-0.09150055
104	0xbd8328d2	-0.0640427
105	0x3d289deb	0.041166227
106	0xbc2fc72b	-0.010728638
107	0xbdaf5ea0	-0.0856297
108	0xbdbaed6b	-0.09127315
109	0xbdb7b277	-0.08969586
110	0xbdb684c9	-0.089120455
111	0xbd68ea78	-0.05686423
112	0xbdbf6bbe	-0.09346722
113	0xbd92ee17	-0.07174318
114	0x3bdd3d48	0.00675169
115	0x3d9516a2	0.072797075
116	0xbd777525	-0.060414452
117	0x3c01bc6d	0.007918459
118	0x3c8dd800	0.01731491
119	0x3d847595	0.064677395
120	0xbdac09f5	-0.08400337
121	0xbc011422	-0.007878335
122	0x3de77298	0.11301154
123	0x3e093397	0.13398586
124	0xbe0161da	-0.12634984
125	0x3c72c68f	0.014817848
126	0x3c2924a3	0.010323676
127	0xbca86174	-0.020554282
128	0xbda498f3	-0.08036985
129	0xbdf9b537	-0.12192767
130	0x3da55a2a	0.08073838
131	0xbd7bd4a0	-0.061482072
132	0xbd13d8a3	-0.036095273
133	0x3b8e7e61	0.0043485616
134	0xbd871343	-0.06595471
135	0x3c539baf	0.012915536
136	0x3d8b970a	0.06815918
137	0xbdc82363	-0.097723745
138	0x3d3d82c2	0.04626728
139	0x3d33eabc	0.043925032
140	0x3d83fc52	0.06444611
141	0x3d30eb73	0.043193292
142	0xb9e8d608	-0.00044409954
143	0x3c2487a2	0.010042103
144	0xbdcafbe4	-0.099113256
145	0x3d166850	0.036720574
146	0x3dab10f1	0.08352841
147	0xbd21de43	-0.039518606
148	0xbdd7dafc	-0.10539815
149	0x3dd0cc68	0.101952374
150	0xbd7d088c	-0.06177573
151	0x3cd9ddce	0.026595023
152	0xbcc07c69	-0.023496823
153	0x3d976e73	0.073941134
154	0x3dde978c	0.10868749
155	0x3da82f65	0.08212165
156	0xbd42b667	-0.047537234
157	0x3df2fcf7	0.118646555
158	0x3db252a4	0.08707169
159	0x3d029428	0.031879574
160	0xbde7eb31	-0.11324156
161	0xbd3988f1	-0.045296613
162	0xbdfacf02	-0.12246515
163	0x3dadb563	0.084818624
164	0x3e09f546	0.1347247
165	0x3dfc5037	0.12319987
166	0x3c3cbff6	0.011520376
167	0xbcb08e38	-0.02155219
168	0x3e0aa16b	0.13538139
169	0xbdaeb67c	-0.085309
170	0xbd636858	-0.05551943
171	0xbe187e9d	-0.14892049
172	0x3bc990df	0.006151303
173	0x3c9a9fdd	0.018875057
174	0x3d0e81e4	0.034791842
175	0xbdf2871c	-0.11842176
176	0xbc5c2970	-0.013437614
177	0xbdd6764c	-0.10471782
178	0xbdc1e763	-0.09467962
179	0x3c8ecbde	0.017431196
180	0xbddd2d03	-0.10799601
181	0x3d8eedf8	0.06978983
182	0xbdc4eeb9	-0.09615845
183	0xbdc71864	-0.09721449
184	0xbc0731b0	-0.0082515925
185	0xbdd8734e	-0.105688676
186	0x3db44d02	0.088037506
187	0x3db578cf	0.08860933
188	0xbdb404f2	-0.08790006
189	0xbd0224c0	-0.03177333
190	0x3df2dd24	0.118585855
191	0x3dc87b74	0.09789172
192	0xbd081584	-0.033223644
193	0xbe07a0eb	-0.13244979
194	0x3da40e25	0.0801051
195	0xbdfb0e34	-0.122585684
196	0xbd1b2d4f	-0.037885007
197	0xbba91ca7	-0.0051608863
198	0xbd5c35a6	-0.0537621
199	0xbd6f8cde	-0.05848395
200	0xbdf2cb26	-0.11855154
201	0xbbff9bf6	-0.0078005744
202	0xbce1ca97	-0.027562423
203	0x3db93b47	0.090445094
204	0xbd5e0c99	-0.054211233
205	0x3da6bfe5	0.0814207
206	0xba4e3236	-0.00078657584
207	0xbd905222	-0.070469156
208	0xbd3b2f49	-0.04569939
209	0xbcbce534	-0.023058511
210	0xbc78e807	-0.015192038
211	0xbd1ddfdd	-0.03854357
212	0x3ce7b771	0.028285714
213	0x3dabfc3a	0.08397718
214	0xbb91a593	-0.004444787
215	0x3d01871e	0.031623
216	0x3d81b588	0.063334525
217	0x3c2bc180	0.010483146
218	0x3d3bd503	0.04585744
219	0x3d70bdf1	0.058774892
220	0x3dd49d2b	0.1038154
221	0xbe019d63	-0.12657695
222	0x3cd5c860	0.026096523
223	0xbc75578c	-0.014974486
224	0xbd0b1187	-0.033952262
225	0xbd73008b	-0.05932669
226	0x3d7585a4	0.059941903
227	0x3dcb6b74	0.099326044
228	0xbdf09807	-0.11747747
229	0x3d546d50	0.05186206
230	0x3d9dea73	0.07710733
231	0x3be626e3	0.0070236786
232	0xbc54563c	-0.012960013
233	0x3da9af0a	0.08285339
234	0xbb9d0fae	-0.004793129
235	0xbd3d7556	-0.04625448
236	0xbcba4ccd	-0.0227417
237	0x3cba0927	0.022709442
238	0x3cac12f3	0.02100513
239	0xbc9454a5	-0.018106768
240	0x3cdb80a9	0.026794748
241	0x3cab8026	0.02093513
242	0xbde4b6c3	-0.111676715
243	0x3c8faefa	0.01753949
244	0x3d845a40	0.06462526
245	0x3c6e82fc	0.014557596
246	0xbcdfe90f	-0.02733281
247	0x3daa6795	0.08320538
248	0xbdef9896	-0.11699025
249	0xbd92ee0f	-0.07174312
250	0xbd8c96e9	-0.06864721
251	0x3db66090	0.089051366
252	0xbe08eb62	-0.13371041
253	0xbbdfc2b3	-0.00682863
254	0xbe073b45	-0.13206203
255	0xbc91373c	-0.017726533

fc2.bias f4 [64]
0	0xbc64d09c	-0.013965752
1	0xbd6bb3c6	-0.057544492
2	0x3d468a7f	0.048471924
3	0x3d0a84cb	0.033818047
4	0x3dfa6f3f	0.1222825
5	0xbe04da27	-0.12973844
6	0xbdba4847	-0.09095817
7	0x3d8c361b	0.06846257
8	0x3d285507	0.041096713
9	0x3dd09364	0.101843625
10	0xbd3a96b2	-0.04555387
11	0x3e172e8c	0.1476385
12	0x3d55053d	0.05200695
13	0xbd666ada	-0.056254245
14	0xbd775948	-0.06038788
15	0x3c9c410b	0.019073984
16	0xbc28ac02	-0.010294916
17	0xbccb1ea5	-0.024794886
18	0xbd9b8cd3	-0.075952195
19	0x3d8085f3	0.06275549
20	0x3d9fe499	0.078072734
21	0x3e1310cf	0.1436188
22	0xbda3002b	-0.079590164
23	0xbd935857	-0.07194584
24	0xbda98c14	-0.08278671
25	0xbdb75ff0	-0.089538455
26	0x3dde31c5	0.108493365
27	0xbd83023d	-0.06396911
28	0xbd24a32d	-0.04019468
29	0x3dbc72e8	0.09201604
30	0x3da4d981	0.08049298
31	0xbdcd9afe	-0.10039328
32	0xbcd78df4	-0.026312806
33	0x3d67f140	0.05662656
34	0x3cf0c780	0.029392004
35	0xbd91188c	-0.0708476
36	0xbdccf540	-0.10007715
37	0xbdcb2734	-0.09919587
38	0x3daecfac	0.08535704
39	0xbd4137ff	-0.047172543
40	0xbd913b89	-0.070914336
41	0x3e0b514d	0.13605233
42	0x3d64b834	0.055839732
43	0xbd3224bf	-0.043492075
44	0x3d1fca1a	0.0390111
45	0xbd80f050	-0.06295836
46	0xbd8f345c	-0.06992409
47	0xbdc7f00b	-0.097625814
48	0x3d9fa199	0.07794494
49	0xbdd956b3	-0.1061224
50	0xbdaf9ec6	-0.085752055
51	0x3e05c1e0	0.13062239
52	0xbdbcd8e7	-0.09221058
53	0xbd622a4f	-0.05521613
54	0x3cbc7de1	0.023009242
55	0xbddaff07	-0.10693174
56	0xbe0c7a9f	-0.13718651
57	0xbde6a466	-0.11261825
58	0x3c5ad5b9	0.0133566195
59	0xbd7c132e	-0.06154173
60	0x3d8bb847	0.068222575
61	0x3dbf2fcf	0.09335291
62	0x3de0f70b	0.1098462
63	0xbdfb6681	-0.122754104

fc3.weight f4 [4, 64]
0	0xbc6fa1d6	-0.014625987
1	0x3d71ebd5	0.059062798
2	0x3d6c8dc2	0.05775238
3	0xbd8e0c75	-0.0693597
4	0x3dab3795	0.08360211
5	0xbd22ad7c	-0.03971623
6	0x3e07ec03	0.13273625
7	0xbdc1463e	-0.09437226
8	0x3d877378	0.06613821
9	0xbc01df74	-0.0079268105
10	0xbdd67108	-0.10470778
11	0x3d40f2d7	0.04710659
12	0xbd08d705	-0.033408184
13	0xbc5c8080	-0.013458371
14	0xbd1c5030	-0.03816241
15	0xbcf027f1	-0.02931592
16	0xbcd8fd6e	-0.026488032
17	0x3d3da011	0.04629523
18	0xbb6dd510	-0.0036290325
19	0x3db96f6b	0.090544544
20	0x3d4accc2	0.04951168
21	0xbc3c31b7	-0.011486462
22	0x3d49e3f9	0.049289677
23	0xbd1d4bae	-0.038402252
24	0xbdbd0313	-0.09229102
25	0xbda8a030	-0.08233678
26	0xbd9097e1	-0.070602186
27	0xbdce401a	-0.1007082
28	0x3a7c65e1	0.0009628218
29	0xbc9855b7	-0.01859556
30	0xbdd1e7e9	-0.102493115
31	0x3d5311f7	0.051530804
32	0x3d913d26	0.07091741
33	0x3dd78911	0.1052419
34	0x3c2b52f0	0.010456786
35	0xbd6f8ea6	-0.05848565
36	0x3d251d9a	0.040311433
37	0xbd953dbb	-0.07287165
38	0x3ba5e522	0.005062715
39	0x3da59067	0.08084183
40	0x3da9fef1	0.08300579
41	0x3c71ba4d	0.01475389
42	0xbb8c7358	-0.004286211
43	0x3d46d84b	0.048546117
44	0x3d0b165a	0.033956863
45	0xbc4f9e69	-0.012672045
46	0x3d9ab7ba	0.07554574
47	0x3d9338e8	0.071885884
48	0xbd569749	-0.05239037
49	0x3e01a97a	0.12662306
50	0xbd8c5073	-0.06851282
51	0x3cead046	0.028663766
52	0x3e01e98b	0.12686746
53	0xbd558dc3	-0.052137148
54	0x3d705492	0.058674403
55	0xbc6d1799	-0.014470958
56	0xbd822293	-0.06354251
57	0xbaa2d5db	-0.0012423353
58	0x3e11cb08	0.14237607
59	0x3d975469	0.07389147
60	0xbd4ac817	-0.049507227
61	0x3dd1e263	0.10248258
62	0x3cba136a	0.022714335
63	0x3df373e9	0.118873425
64	0x3df3a9eb	0.11897644
65	0xbdf06e6e	-0.11739813
66	0x3dfaf247	0.12253242
67	0xbbbf7528	-0.0058428235
68	0x3cf7d7d4	0.030254282
69	0xbd836223	-0.064152025
70	0xbcc0f94e	-0.023556378
71	0xbd34fcef	-0.04418653
72	0xbdc7fd22	-0.09765078
73	0x3c1857c3	0.009298268
74	0x3d9493ca	0.07254751
75	0x3d5ac403	0.053409588
76	0xbdcf7d07	-0.10131269
77	0x3d4cf45b	0.050037723
78	0xbca5de60	-0.020247638
79	0x3d826451	0.0636679
80	0xbdeb195a	-0.11479445
81	0xbccedc74	-0.025251605
82	0xbdb6f518	-0.08933467
83	0x3b8ce5d8	0.0042998604
84	0x3db7426d	0.089482166
85	0x3ddae949	0.10689027
86	0xbc1389f1	-0.009005056
87	0x3dfa29d2	0.12215008
88	0x3d03f02f	0.03221148
89	0xbd89fd71	-0.06737793
90	0x3d7aab36	0.061198436
91	0xbcb0cc42	-0.021581773
92	0xbe3baa85	-0.18326767
93	0x3dcc1c55	0.099663414
94	0x3dd07f7f	0.10180568
95	0x3db0fa8b	0.08641537
96	0xbca2946e	-0.019846167
97	0xbde0de85	-0.10979942
98	0x3df983b0	0.121833205
99	0xbda03389	-0.078223296
100	0x3d314837	0.04328176
101	0xbe3438cf	-0.17599796
102	0x3dc78ff5	0.097442545
103	0x3d41be75	0.047300775
104	0x3e32bc4e	0.17454645
105	0x3d7fa404	0.062412277
106	0xbddc1c28	-0.10747558
107	0x3d679c7c	0.05654572
108	0xbde2169a	-0.11039467
109	0xbdbdc001	-0.092651375
110	0x3d891002	0.066925064
111	0xbe1fc49b	-0.15602343
112	0x3d6c9568	0.057759672
113	0xbd4df625	-0.05028357
114	0x3c8af721	0.016963543
115	0xbd401169	-0.046891604
116	0x3da949d1	0.082660325
117	0x3cf3e5be	0.029772636
118	0x3d953a72	0.07286538
119	0x3cf563f5	0.02995489
120	0xbd9ec0d1	-0.077516206
121	0xbd9b962c	-0.075970024
122	0x3d93e9e5	0.07222346
123	0xbd76e072	-0.06027264
124	0xbce637ad	-0.02810272
125	0xbdf878a1	-0.12132383
126	0xbd9986f9	-0.07496447
127	0xbc3ac9a0	-0.01140061
128	0x3cece823	0.028919285
129	0x3d2a6742	0.04160238
130	0x3d663398	0.056201547
131	0x3d0a2765	0.033728976
132	0x3ddd508a	0.10806377
133	0x3bc94838	0.0061426423
134	0x3e198d62	0.1499534
135	0x3c878864	0.016544528
136	0x3a5f9c2c	0.00085300463
137	0x3d389a04	0.045068756
138	0xbdbf6725	-0.09345845
139	0x3e1141b3	0.14185219
140	0x3dd34762	0.103163496
141	0xbde13417	-0.109962635
142	0xbd985c66	-0.074394986
143	0x3d893d17	0.06701105
144	0x3d00b19c	0.03141938
145	0xbce883b8	-0.02838312
146	0xbd625d4a	-0.05526475
147	0xbccd3778	-0.025050864
148	0xbc611dd8	-0.013740025
149	0x3dd6b5e9	0.10483915
150	0xbd8ee8f7	-0.06978028
151	0x3cebe1d7	0.028794212
152	0x3d0ecf3b	0.0348656
153	0xbd7df738	-0.062003344
154	0x3bc1c96c	0.005913904
155	0xbd7448e8	-0.05963984
156	0x3db733a3	0.08945396
157	0x3da71f1b	0.0816023
158	0x3c1ab484	0.009442452
159	0xbd4be262	-0.049776442
160	0xbd8127ad	-0.06306396
161	0xbc8fadff	-0.017539022
162	0x3db1c85f	0.08680796
163	0x3d68c10d	0.056824733
164	0x3cbf145d	0.02332514
165	0xbdb82318	-0.089910686
166	0x3cf4e714	0.029895343
167	0xbc16732b	-0.009182732
168	0x3e0a291c	0.13492244
169	0x3d90efc0	0.07076979
170	0x3db2f305	0.087377585
171	0x3b712707	0.0036796944
172	0x3a833f7c	0.0010013427
173	0xbcc40daf	-0.023932306
174	0x3d8645c4	0.065562755
175	0x3ca15d3c	0.019697778
176	0x3d99566b	0.07487186
177	0x3b33f0cf	0.0027456766
178	0xbd8e2480	-0.069405556
179	0x3deeeb7f	0.11666011
180	0xbd25c862	-0.040474303
181	0x3bb10224	0.0054018665
182	0x3cfc2e14	0.03078369
183	0x3d2377aa	0.039909042
184	0xbda03e2e	-0.0782436
185	0xbd23d22a	-0.03999535
186	0x3d6eef95	0.058333952
187	0xbaec4c63	-0.0018028136
188	0xbdb8d80f	-0.09025585
189	0x3d79ddb5	0.061002452
190	0xbd4f8e8b	-0.05067305
191	0xbd1c50fa	-0.038163163
192	0x3dc72558	0.0972392
193	0x3dc19d6f	0.09453856
194	0xbbe58dc6	-0.007005426
195	0xbd6daf01	-0.058028225
196	0xbd257f1b	-0.04040442
197	0xbcde8a20	-0.027165473
198	0xbd156260	-0.03647077
199	0x3cc118a7	0.023571325
200	0x3d6784f9	0.056523297
201	0x3e050d08	0.12993252
202	0x3db1e33c	0.0868592
203	0x3bb78777	0.0056008655
204	0x3da03bb7	0.0782389
205	0x3c133cef	0.008986696
206	0x3d72be00	0.05926323
207	0xbd327289	-0.04356626
208	0x3df07072	0.11740197
209	0x3ddbd654	0.10734239
210	0x3da2241a	0.07917042
211	0x3dcc9206	0.09988789
212	0xbcc27c62	-0.023740951
213	0x3de64689	0.11243922
214	0xbd25311b	-0.040330034
215	0x3d4d8d91	0.050183836
216	0xbd4f10ef	-0.05055326
217	0xbdca7384	-0.09885314
218	0xbcbb4fa3	-0.022865122
219	0x3d535404	0.051593795
220	0x3dbdd6d6	0.09269492
221	0xbdb61d49	-0.088923045
222	0xbcf1653a	-0.029467214
223	0x3d8d5a6f	0.069020145
224	0xbd54a425	-0.051914353
225	0x3d4ec342	0.05047918
226	0xbd7d58b0	-0.061852157
227	0x3d0de24a	0.034639634
228	0xbd84463a	-0.06458707
229	0x3c78c9d9	0.015184843
230	0x3df52781	0.119704254
231	0x3ca0ca87	0.019627823
232	0xbe322e70	-0.17400527
233	0x3dea5dc9	0.11443669
234	0x3df5fc86	0.12011056
235	0xbdf63464	-0.120217115
236	0x3df41352	0.119177476
237	0xbdf8a3e8	-0.12140638
238	0x3d83997b	0.064257585
239	0x3b751165	0.00373944
240	0x3c83d95b	0.016094854
241	0xbc680a5e	-0.014162628
242	0x3e0a52c7	0.1350814
243	0x3d6e008d	0.058105994
244	0x3b8f69e8	0.0043766387
245	0xbc3f3aa7	-0.011671699
246	0x3dad96d6	0.08476035
247	0x3dfd3e8d	0.12365446
248	0xbda320de	-0.07965253
249	0xbdf44319	-0.1192686
250	0xbcf1e979	-0.029530274
251	0xbd7f372b	-0.06230847
252	0xbdba820c	-0.09106836
253	0xbd15ac19	-0.03654108
254	0xbd31eee4	-0.043440714
255	0x3d1057a9	0.03523985

fc3.bias f4 [4]
0	0x3d362979	0.044473145
1	0x3dc4ce6a	0.09609683
2	0xbd84ed4c	-0.06490573
3	0xbd9a18c0	-0.07524252

state_value.weight f4 [1, 64]
0	0xbd5f0428	-0.054447323
1	0xbdbcaa64	-0.09212187
2	0x3bdc9e80	0.006732762
3	0xbdc221e4	-0.094791204
4	0xbbbce520	-0.0057646185
5	0xbc8c21d0	-0.017105967
6	0xbdc63de2	-0.09679772
7	0xbd6727ec	-0.056434557
8	0x3d5fccd8	0.054638714
9	0xbd12c800	-0.035835266
10	0xbde1f232	-0.11032523
11	0x3dd0458e	0.101695165
12	0xbd1fa10c	-0.038971946
13	0x3c76d510	0.0150654465
14	0x3dcdde40	0.100521564
15	0x3d7ef0e8	0.062241465
16	0xbdceebc6	-0.10103564
17	0x3de21f3e	0.11041115
18	0xbd0eb8c4	-0.034844175
19	0x3d029b2c	0.031886265
20	0x3d63efac	0.05564849
21	0x3d32b67c	0.043631062
22	0x3daefa24	0.08543804
23	0xbd670e54	-0.05641015
24	0x3dbe40cc	0.09289703
25	0x3da2bbac	0.07945952
26	0xbde08572	-0.10962953
27	0xbd3ee430	-0.046604335
28	0x3ddd3bc6	0.108024165
29	0xbdbe0284	-0.092778236
30	0xbde7a3da	-0.11310549
31	0x3d9e1a8a	0.07719906
32	0x3d346ac4	0.044047132
33	0x3c608c00	0.013705254
34	0x3dcc23d6	0.09967773
35	0x3bc9b020	0.006155029
36	0x3df99e64	0.12188414
37	0xbda9e296	-0.08295171
38	0xbddc0388	-0.10742861
39	0xbcdeae30	-0.027182668
40	0x3df8df9c	0.12152025
41	0xbddae118	-0.106874645
42	0x3d533ae4	0.051569834
43	0x3d031a48	0.032007486
44	0xbd58cd5c	-0.05293022
45	0xbdd1f1f4	-0.10251227
46	0x3d566390	0.052341044
47	0x3d4002ac	0.046877548
48	0xbb5643c0	-0.003269419
49	0x3d4a4e80	0.04939127
50	0x3d8bfe96	0.06835668
51	0xbdb44e52	-0.08804001
52	0xbddd4b0a	-0.10805328
53	0xbcaa4740	-0.020785928
54	0xbc935e70	-0.017989367
55	0xbd44a9e0	-0.048013568
56	0x3d06c1d4	0.032899693
57	0xbdc4735a	-0.09592314
58	0x3df8c204	0.121463805
59	0xbcce1070	-0.025154322
60	0xbd8effc8	-0.0698238
61	0xbca39ed0	-0.019973189
62	0xbdcab610	-0.09898007
63	0xbddd84a4	-0.10816315
