pth_checkpoints/checkpoint.pth (torch_old, 28901 bytes, 7 tensors)

fc1.weight f4 [64, 37]
-0.026606334 0.038734473 -0.09947489 -0.124876894 -0.012176437 -0.038184837 -0.10403652 0.31167808
0.019848045 -0.28093475 0.040178765 -0.19916002 -0.1353634 -0.14309405 -0.20065705 0.0016466472
0.11530924 0.005905601 -0.09284014 -0.13490248 0.13377011 0.024356946 -0.052854184 -0.01003533
-0.6116265 -0.108584575 0.20295957 0.00404684 -0.06779429 -0.042266127 -0.12835667 0.18472382
0.113536194 -0.38306665 -0.16518702 -0.052981175 0.011686918 0.11883528 0.11057818 0.07245323
-0.016687257 0.048932612 0.24549608 -0.5639483 -0.22506934 -0.46133846 -1.3395241 0.0847037
-0.011637692 0.03016501 0.08343419 0.046904456 0.060235195 0.076384395 0.018278442 0.14088489
0.21164368 -0.084898576 -0.037386153 -0.14389561 0.08158363 0.1658877 0.005100874 -0.004835566
0.026783945 0.11316802 0.16357383 0.050688192 0.25428137 0.09034333 -0.058516897 -0.15550151
0.057312537 0.0006299241 0.17826997 0.080597386 0.1781006 0.06443503 -0.0063891103 -0.4301455
0.06985489 0.36354524 -0.08224729 -0.70797193 0.09395194 -0.012231698 0.01521789 0.0046032565
-0.017899957 -0.0577378 0.101772495 0.1276413 0.040924568 -0.07386682 -0.15996213 0.019807218
0.11461377 0.011903818 -0.044585172 -0.25900635 0.18312967 0.24049592 0.13013296 -0.35974982
-0.17820022 0.08457258 -0.0076532145 -0.5865742 -0.08953131 0.0012152757 -0.021702074 0.26755637
-0.13172047 0.00792848 -0.012864024 -0.60141206 0.0048299907 -0.013751148 0.032844927 0.14786693
0.0698737 -0.014273318 0.05531857 0.060822293 -0.017356645 0.02134549 -0.0059704226 -0.028010732
-0.080633484 -0.0736943 -0.03845334 0.08801179 -0.09433064 0.020973958 -0.037428945 -0.06379824
-0.1165576 -0.051351182 0.06815922 0.27926674 0.3146811 0.13635491 0.18001375 0.04305444
-0.00092564285 -0.45828104 0.03050599 -0.0049186423 -0.14975795 -0.030427322 -0.07967135 -0.04134285
0.04114981 0.34598076 -0.60263044 -0.3543732 -0.43733922 -1.8470316 -0.10305588 0.063029036
-0.022826627 -0.06488366 -0.075025834 -0.065276034 0.015194553 -0.03358333 0.04368394 0.073860355
-0.041805957 0.04214819 0.086107664 0.036226515 0.25894397 0.029413158 -0.0015842646 0.0949817
0.03702148 0.08009222 0.07290553 0.01656531 0.07408334 0.05706423 0.21307272 -0.01369214
0.0035569165 0.03394531 -0.06962858 0.018859765 -0.003175949 -0.0857325 0.24881528 0.10635148
-0.23834823 -0.052489717 -0.70058054 -0.076865695 0.023836572 0.04349232 -0.12708311 0.10844015
0.021548392 0.071923465 0.003029271 -0.14127176 -0.091605075 0.18506156 -0.001382228 0.054608714
0.08856479 -0.008594302 0.0400986 -0.04196831 0.023278812 0.071494766 0.087503135 0.15876183
-0.01466379 -0.19410472 -0.11237062 -0.37175062 -0.01583385 0.030965414 0.0015206323 -0.10567598
-0.13524757 0.008306865 0.24428807 -0.040551998 -0.23480897 -0.120553695 -0.0024584092 0.15592563
0.044010878 0.048084065 -0.14812185 0.08514564 0.09867517 -0.16258244 -0.29803708 0.055375546
-0.010974389 -0.11182106 -0.09216757 -0.0032506143 -0.19116566 -0.08598387 0.27734974 -0.18215248
-0.15929203 -0.26377705 0.10508224 0.19351792 0.026810596 -0.4115387 -0.049571935 0.20085871
00000000: 87f5 d9bc 0aa8 1e3d 7eb9 cbbd 75bf ffbd
00000010: ae7f 47bc b467 1cbd 1911 d5bd 4594 9f3e
00000020: 5e98 a23c aed6 8fbe 7d92 243d 9bf0 4bbe
00000030: b49c 0abe 3f87 12be 0b79 4dbe 50d4 d73a
00000040: 4027 ec3d c683 c13b f922 bebd e023 0abe
00000050: 08fb 083e 3888 c73c a17d 58bd 3a6b 24bc
00000060: 8e93 1cbf 9761 debd a2d4 4f3e 5b9b 843b
00000070: bcd7 8abd 3f1f 2dbd ee6f 03be 3e28 3d3e
00000080: aa85 e83d 5021 c4be c926 29be ca02 59bd
00000090: 7d7a 3f3c e95f f33d d076 e23d 5c62 943d
000000a0: b7b3 88bc 906d 483d 5363 7b3e ea5e 10bf
000000b0: 9478 66be 8e34 ecbe 8775 abbf 2279 ad3d
000000c0: 05ac 3ebc 9c1c f73c 8bdf aa3d e31e 403d
000000d0: 2eb9 763d 6c6f 9c3d acbc 953c 2144 103e
000000e0: 1fb9 583e 4edf adbd 3922 19bd 5f59 13be
000000f0: 5115 a73d 77de 293e 3c25 a73b ab73 9ebb
00000100: 016a db3c a3c4 e73d e67f 273e 6c9e 4f3d
00000110: 2b31 823e ec05 b93d 6aaf 6fbd ca3b 1fbe
00000120: 8dc0 6a3d 7e21 253a 678c 363e 3e10 a53d
00000130: 0160 363e 83f6 833d be5b d1bb 083c dcbe
00000140: 1510 8f3d 9a22 ba3e 4471 a8bd a63d 35bf
00000150: e069 c03d 7667 48bc 7554 793c ead6 963b
00000160: eea2 92bc 797e 6cbd 196e d03d 67b4 023e
00000170: 85a0 273d 7d47 97bd 1dcd 23be bf42 a23c
00000180: a0ba ea3d 3b08 433c f19e 36bd 7b9c 84be
00000190: 5886 3b3e 9044 763e 9341 053e 2131 b8be
000001a0: 1e7a 36be 6434 ad3d d1c7 fabb ba29 16bf
000001b0: 315c b7bd e349 9f3a 8cc8 b1bc 26fd 883e
000001c0: bbe1 06be 75e6 013c a1c3 52bc 24f6 19bf
000001d0: e644 9e3b 7f4c 61bc 6788 063d 6e6a 173e
000001e0: f119 8f3d a3da 69bc ba95 623d cc20 793d
000001f0: 862f 8ebc bddc ae3c 89a3 c3bb c376 e5bc
00000200: 2b23 a5bd 0aed 96bd 4081 1dbd 863f b43d
00000210: 6c30 c1bd 94d1 ab3c 184f 19bd a7a8 82bd
00000220: c0b5 eebd 9e55 52bd 1097 8b3d 0dfc 8e3e
00000230: e21d a13e 9fa0 0b3e 8655 383e da59 303d
00000240: d7a6 72ba d0a3 eabe b3e7 f93c 902c a1bb
00000250: 265a 19be b842 f9bc bc2a a3bd 1f57 29bd
00000260: b48c 283d 6424 b13e fd45 1abf 6770 b5be
00000270: edea dfbe 886b ecbf f60e d3bd 5e15 813d
00000280: e8fe babc b9e1 84bd 25a7 99bd 71af 85bd
00000290: 93f2 783c ad8e 09bd eeed 323d 1944 973d
000002a0: b93c 2bbd 95a3 2c3d 3759 b03d 4162 143d
000002b0: 4e94 843e ddf3 f03c 19a7 cfba c485 c23d
000002c0: d6a3 173d 6407 a43d 7f4f 953d f9b3 873c
000002d0: 02b9 973d 2fbc 693d bc2f 5a3e ff54 60bc
000002e0: 281b 693b 3d0a 0b3d 6e99 8ebd cb7f 9a3c
000002f0: 9523 50bb 8594 afbd 6fc9 7e3e cece d93d
00000300: 8f11 74be 75ff 56bd 3f59 33bf c36b 9dbd
00000310: ea44 c33c 0125 323d 1322 02be df15 de3d
00000320: 4186 b03c 9c4c 933d bc86 463b 8ba9 10be
00000330: 719b bbbd c780 3d3e e02b b5ba 63ad 5f3d
00000340: 7561 b53d 1ecf 0cbc 6e3e 243d f6e6 2bbd
00000350: 35b3 be3c d96b 923d d834 b33d 7692 223e
00000360: 6540 70bc 63c3 46be 9122 e6bd 1956 bebe
00000370: fdb5 81bc 2eab fd3c f44f c73a a66c d8bd
00000380: 577e 0abe 8419 083c a726 7a3e da19 26bd
00000390: c371 70be dbe4 f6bd 431d 21bb f8aa 1f3e
000003a0: c044 343d ccf3 443d 41ad 17be d660 ae3d
000003b0: 3516 ca3d 037c 26be 5198 98be 78d1 623d
000003c0: eccd 33bc 7102 e5bd 5ac2 bcbd 4208 55bb
000003d0: eec0 43be 5018 b0bd c900 8e3e 2e86 3abe
000003e0: 731d 23be c90d 87be 5c35 d73d 9029 463e
000003f0: e5a1 db3c 33b5 d2be f10b 4bbd e8ad 4d3e

fc1.bias f4 [64]
0.13452655 -0.015258065 -0.08085376 -0.057173453 0.23109262 -0.0052045705 -0.19745213 0.0073407576
0.07145556 -0.12978403 0.16102546 0.12943055 0.008249658 0.1266017 -0.07168978 -0.046157096
0.052428532 -0.011070767 -0.0010379544 -0.26272213 -0.13053183 0.07353183 -0.021097654 -0.0719397
-0.13467494 0.1739715 0.0019207125 -0.18584737 0.24232255 0.10175563 -0.12653698 -0.2747177
0.10994546 -0.030791864 -0.13789897 0.038412884 -0.067853995 -0.027865972 -0.010313822 -0.21387683
-0.086052366 0.027974967 -0.17984594 0.19146325 -0.005860683 -0.121576495 0.083636254 -0.12642282
-0.09552628 0.054699264 -0.1526333 0.05344729 -0.045301083 -0.09349209 -0.13544227 -0.05095554
0.12768483 -0.020011878 -0.08793073 -0.071422525 0.031697635 0.045390435 0.015039587 0.045220427
00000000: 54c1 093e f7fc 79bc a896 a5bd b62e 6abd
00000010: 8ba3 6c3e 1a8b aabb e430 4abe bd8a f03b
00000020: 4b57 923d 1be6 04be dce3 243e 7189 043e
00000030: 9329 073c e0a3 013e 17d2 92bd 390f 3dbd
00000040: 4dbf 563d 2a62 35bc f80b 88ba 8483 86be
00000050: 23aa 05be db97 963d fdd4 acbc 1f55 93bd
00000060: 3ae8 09be 9625 323e 6bc0 fb3a c64e 3ebe
00000070: 6723 783e 4165 d03d e992 01be cca7 8cbe
00000080: 162b e13d 383f fcbc 6335 0dbe d456 1d3d
00000090: 09f7 8abd 2e47 e4bc 4efb 28bc 8702 5bbe
000000a0: 393c b0bd c22b e53c 8929 38be f10e 443e
000000b0: f90a c0bb 19fd f8bd 7c49 ab3d fc74 01be
000000c0: 48a3 c3bd 560c 603d e74b 1cbe 8ceb 5a3d
000000d0: a18d 39bd c878 bfbd 61b1 0abe c2b6 50bd
000000e0: d0bf 023e f3ef a3bc 0715 b4bd f945 92bd
000000f0: 61d5 013d 52eb 393d 9a68 763c 0e39 393d

fc2.weight f4 [64, 64]
-0.21984835 0.10811885 0.15756121 0.389731 -0.23525733 -0.10997619 0.18997024 0.0063970964
-0.20877336 0.13218741 -0.07346521 -0.20411785 -0.019896979 0.1501893 -0.060630105 -0.30041736
-0.030422881 0.24239969 -0.0562127 -0.0019429368 -0.15453964 0.019010564 -0.18833894 0.3920095
-0.043882098 -0.23491089 0.43070608 0.05376953 -0.1285336 -0.12705591 -0.17526798 -0.1424724
0.0717792 0.016453775 0.01884425 0.08879318 -0.07565869 -0.149245 -0.46463814 0.015481042
-0.15444912 0.10484933 0.09691181 -0.1751958 0.05974071 -0.17715125 0.0056268997 0.11246701
-0.10466074 -0.19841546 -0.16521136 -0.034211714 -0.07164872 0.115377665 0.026017992 0.018972177
-0.35135713 0.017112514 -0.22769588 0.08854343 -0.009597831 0.061502486 0.21756895 -0.04280793
0.13319612 0.04238038 -0.3260895 0.1387503 0.051178906 0.076495 0.17607206 0.076601066
0.17401214 -0.2457298 0.0031524356 0.09201358 0.037205853 0.23897308 -0.4071303 -0.18080796
0.07778057 0.0685222 0.12176712 -0.16494362 0.081076756 -0.20209232 0.044508245 0.34477606
-0.20760296 0.07954338 -0.24561986 -0.23494855 0.049756832 -0.10694317 -0.28478432 -0.11072976
0.08104753 0.027834056 0.04147001 -0.09013845 0.09103254 0.044318914 0.09720524 -0.21903557
0.22956513 -0.032070395 0.03898051 -0.23092854 0.033370394 -0.006894706 -0.18810475 0.010625111
-0.043975286 0.043267988 0.10248286 0.034808796 -0.07723906 -0.18332736 -0.20368516 0.0048831697
-0.48370335 -0.004877624 0.026933359 0.0074291453 -0.085250266 -0.058299102 -0.0889031 -0.01709018
-0.13613354 -0.14615868 -0.067740545 -0.038411293 -0.16425183 0.018383414 -0.1374527 -0.12581922
-0.058809362 -0.101649836 -0.04916736 -0.035729617 -0.033428323 0.036379132 0.05456381 -0.17492765
-0.09630406 0.021492384 0.049902692 -0.09132959 -0.041708797 0.06902337 0.09044983 0.4013849
-0.28157783 0.045247875 0.5319827 0.09305247 -0.07545115 0.24333908 0.011698901 -0.18688045
-0.003176295 -0.2465974 -0.09143444 0.072594345 0.13043146 0.00018758314 0.22658049 0.012247451
0.3289585 0.15613978 0.048832018 -0.13363959 -0.036079228 0.0806365 0.06395253 -0.012071639
0.10244696 -0.062648006 -0.30087453 0.04157245 -0.057254877 0.090300255 -0.034383982 -0.041900694
-0.6740017 -0.25506917 -0.038035825 0.20135078 -0.08343496 0.04861289 0.24210139 -0.087091535
0.11808153 -0.16224793 0.19409437 0.04231066 -0.03321882 -0.13017961 -0.05214039 0.21310507
-0.063994184 0.011425317 -0.114242256 -0.21525697 -0.12320323 0.21726193 -0.07766867 -0.118007734
-0.10738005 0.10290007 0.041264307 0.0041864365 0.32837322 -0.078720205 -0.17611076 0.030980352
0.04807576 0.13444334 0.0902363 0.035598937 0.10346725 -0.04183581 0.15260607 -0.10082797
-0.0010546265 -0.16813631 -0.24762766 -0.362517 0.0089622475 0.04666643 0.04810629 -0.22765361
0.042996705 0.3862483 -0.34659278 -0.09523059 0.06817488 -0.04839565 -0.0076840157 0.28800786
-0.007715375 -0.12606765 -0.2129431 -0.252824 0.05854644 -0.13559188 -0.07523677 0.14275688
-0.06647904 -0.30710626 -0.41216663 -0.08786862 -0.26402348 0.2737391 -0.15638731 -0.18310907
00000000: ed1f 61be 6a6d dd3d ba57 213e d28a c73e
00000010: 4ce7 70be 323b e1bd 8f87 423e bc9e d13b
00000020: afc8 55be 235c 073e ee74 96bd 4504 51be
00000030: fdfe a2bc 39cb 193e 4657 78bd 4ed0 99be
00000040: 6839 f9bc a037 783e 4a3f 66bd 24aa feba
00000050: a43f 1ebe 0bbc 9b3c ecdb 40be 78b5 c83e
00000060: b7bd 33bd 7b8c 70be 8285 dc3e 703d 5c3d
00000070: 509e 03be f21a 02be 7379 33be 49e4 11be
00000080: f900 933d 11ca 863c 425f 9a3c 33d9 b53d
00000090: f1f2 9abd aed3 18be 0de5 edbe 32a4 7d3c
000000a0: e927 1ebe 3fbb d63d b379 c63d 8766 33be
000000b0: adb2 743d 2367 35be db61 b83b 1b55 e63d
000000c0: 5f58 d6bd 6c2d 4bbe 2b2d 29be 9521 0cbd
000000d0: 90bc 92bd 204b ec3d af23 d53c 8a6b 9b3c
000000e0: 15e5 b3be 8b2f 8c3c 1c29 69be 4256 b53d
000000f0: 3940 1dbc 08ea 7b3d 65ca 5e3e 5e57 2fbd
00000100: 9064 083e 0d97 2d3d 34f5 a6be 8f14 0e3e
00000110: f9a0 513d 69a9 9c3d 3c4c 343e 05e1 9c3d
00000120: 3d30 323e 98a0 7bbe 1899 4e3b 9e71 bc3d
00000130: 2a65 183d 5cb5 743e 6273 d0be b925 39be
00000140: 6b4b 9f3d 5e55 8c3d 0a61 f93d fbe6 28be
00000150: 920b a63d 4af1 4ebe 474e 363d 7d86 b03e
00000160: df95 54be a4e7 a23d c683 7bbe 5a96 70be
00000170: d2cd 4b3d 0505 dbbd 40cf 91be 49c6 e2bd
00000180: 3ffc a53d 3f04 e43c 75dc 293d 829a b8bd
00000190: 456f ba3d c087 353d 8a13 c73d dc4a 60be
000001a0: 1f13 6b3e 3f5c 03bd 07aa 1f3d 8878 6cbe
000001b0: 65af 083d fcec e1bb 889e 40be f214 2e3c
000001c0: 6e1f 34bd c639 313d 89e2 d13d ab93 0e3d
000001d0: 832f 9ebd 2bba 3bbe d892 50be ff02 a03b
000001e0: f7a7 f7be 7ad4 9fbb 59a3 dc3c 3070 f33b
000001f0: b197 aebd 0acb 6ebd d412 b6bd b500 8cbc
00000200: 9766 0bbe 9faa 15be 8ebb 8abd 2955 1dbd
00000210: a231 28be d098 963c 67c0 0cbe c1d6 00be
00000220: 16e2 70bd ca2d d0bd b763 49bd 3859 12bd
00000230: 23ec 08bd 4902 153d 4d7e 5f3d 3c20 33be
00000240: 103b c5bd cc10 b03c c466 4c3d 020b bbbd
00000250: d8d6 2abd 205c 8d3d c33d b93d 5282 cd3e
00000260: f82a 90be d655 393d 0530 083f 4b92 be3d
00000270: 2286 9abd e12d 793e bfac 3f3c 975d 3fbe
00000280: 6329 50bb 0784 7cbe fb41 bbbd 58ac 943d
00000290: d38f 053e f7b1 4439 b704 683e 88a9 483c
000002a0: 406d a83e 1be3 1f3e 1504 483d d1d8 08be
000002b0: d0c7 13bd c024 a53d 8bf9 823d 20c8 45bc
000002c0: b6cf d13d 994d 80bd 3a0c 9abe e047 2a3d
000002d0: 1784 6abd 57ef b83d 38d6 0cbd 10a0 2bbd
000002e0: 608b 2cbf 6d98 82be 74cb 1bbd e62e 4e3e
000002f0: f3df aabd 4f1e 473d 6de9 773e 0c5d b2bd
00000300: bbd4 f13d 5224 26be adc0 463e f14d 2d3d
00000310: 7510 08bd ce4d 05be 2991 55bd 3738 5a3e
00000320: 620f 83bd 4131 3b3c d8f7 e9bd 536c 5cbe
00000330: fa51 fcbd e979 5e3e c010 9fbd 0aae f1bd
00000340: 12ea dbbd 46bd d23d c304 293d 602e 893b
00000350: 8920 a83e 0f38 a1bd 6156 34be 82ca fd3c
00000360: 17eb 443d 84ab 093e cfcd b83d 31d0 113d
00000370: a3e6 d33d 075c 2bbd c444 1c3e e57e cebd
00000380: 653b 8aba ed2b 2cbe 1b92 7dbe d49b b9be
00000390: 64d6 123c 4c25 3f3d 1a0b 453d 071e 69be
000003a0: 501d 303d 56c2 c53e 9c74 b1be 4108 c3bd
000003b0: 469f 8b3d 843a 46bd 32ca fbbb c475 933e
000003c0: 42d1 fcbb e117 01be c20d 5abe 2672 81be
000003d0: 64ce 6f3d 99d8 0abe bc15 9abd dc2e 123e
000003e0: 2a26 88bd 083d 9dbe 8107 d3be 77f4 b3bd
000003f0: 162e 87be 8827 8c3e ff23 20be f280 3bbe

fc2.bias f4 [64]
-0.029014343 0.014506384 0.13472359 0.014212753 0.1835309 -0.11359312 -0.15047373 0.07073975
0.19709456 0.42493567 -0.13382559 0.23818377 0.21687776 -0.059942957 -0.10833296 0.0056076953
0.003799207 0.047168978 -0.11201708 0.0918849 0.22785117 0.39615628 -0.18191202 -0.055413004
-0.091035776 -0.1312757 0.037721857 -0.111928895 -0.027454771 0.061356716 0.085734755 0.07327339
0.015581641 0.11328791 0.07263382 -0.09489293 -0.11248312 -0.06845598 0.30969378 -0.08653692
-0.041343346 0.49844554 0.23636124 -0.031676088 0.14173499 -0.18835114 0.30433527 -0.077691086
0.072529085 0.009196123 -0.033649877 0.4090783 0.06742637 -0.18712494 0.15145282 -0.068079725
-0.21974799 -0.232111 -0.11972412 -0.07020226 -0.08011715 0.3822476 -0.046945285 -0.03281284
00000000: 7daf edbc 2fac 6d3c fbf4 093e 9bdc 683c
00000010: 86ef 3b3e 82a3 e8bd c915 1abe 01e0 903d
00000020: 28d3 493e 2b91 d93e 9309 09be 72e6 733e
00000030: 3415 5e3e bf86 75bd acdd ddbd c2c0 b73b
00000040: 1efc 783b 4234 413d 3669 e5bd 272e bc3d
00000050: d151 693e ffd4 ca3e 2547 3abe bff8 62bd
00000060: f770 babd 236d 06be 3c82 1a3d fa3a e5bd
00000070: d4e8 e0bc 2e51 7b3d b495 af3d 5c10 963d
00000080: 244a 7f3c 7e03 e83d 0ac1 943d 3957 c2bd
00000090: 8d5d e6bd a632 8cbd 2f90 9e3e 453a b1bd
000000a0: a457 29bd 4134 ff3e ae08 723e c9be 01bd
000000b0: fa22 113e 1fdf 40be d5d1 9b3e 811c 9fbd
000000c0: 218a 943d 56ab 163c 74d4 09bd b672 d13e
000000d0: d616 8a3d ae9d 3fbe 7316 1b3e 626d 8bbd
000000e0: 9e05 61be 82ae 6dbe eb31 f5bd 34c6 8fbd
000000f0: 7614 a4bd f5b5 c33e b349 40bd c266 06bd

fc3.weight f4 [4, 64]
0.2348348 0.107743144 0.2783277 -0.3948605 0.31302196 -0.089702375 -0.107931495 0.032543357
0.185648 0.10970159 -0.15566136 0.21460783 0.11761587 -0.050273802 -0.1681191 0.07755804
0.5037946 0.05506585 -0.26192686 0.14496014 0.20044154 0.052272554 -0.043293186 -0.268125
0.33015436 -0.18075587 0.09951373 -0.2154026 -0.28582147 0.20123667 0.045367453 0.13540938
0.120386094 0.27702317 0.11504733 0.11151174 0.14979057 0.41744247 0.13835289 -0.20301136
0.45743957 0.17187794 0.21367091 0.032708447 0.13409886 -0.10742624 0.146006 -0.22463095
0.40208212 0.31882513 -0.3692978 0.35156193 0.14576533 -0.20338711 0.05203288 0.122850254
-0.1586754 -0.041856695 -0.039665237 -0.110078946 -0.05390693 0.22729391 -0.23042506 0.20733826
0.2422175 0.110676385 0.23483948 -0.08245576 0.22517301 -0.04311996 0.015282361 -0.1367944
0.2183077 0.14166637 0.0039519984 0.2116461 0.08044717 -0.09522591 -0.10181942 0.18336439
0.43568465 0.068190165 -0.21321747 0.091196224 0.17372377 0.22748645 0.0017488885 -0.026086928
0.21938895 -0.21660495 0.2970177 -0.26418066 -0.13231103 0.31183416 0.026514836 0.12543373
0.1387568 0.2278063 0.11005218 0.20226607 0.1559185 0.4984405 0.15776701 -0.15519774
0.40888846 0.16520147 0.21599577 -0.0072486848 0.08146184 -0.15476866 0.17081779 -0.23115145
0.413529 0.2821973 0.12511857 0.20571461 0.18670166 -0.19180427 0.035688743 0.21898425
-0.16000043 -0.17391038 0.09899034 -0.17230913 -0.0817388 0.047995917 -0.04941415 0.08004773
-0.16395926 0.13994558 0.3174176 0.016733343 0.30931568 0.15272705 -0.030510716 0.039293136
0.2355537 0.15013164 -0.16484173 0.22353181 0.20764068 -0.2818132 -0.35827142 0.4390778
0.30775312 -0.52435464 -0.23630522 0.106518164 0.09058031 0.26306194 -0.19473511 0.029511988
0.5603391 -0.18985029 0.19707519 0.16425245 0.17775534 0.24359466 -0.09848746 -0.004990706
-0.045420058 0.011689891 0.24128415 0.558695 0.30764124 0.3160098 0.16638042 -0.07498933
0.26602107 0.19469315 0.23272386 0.15369327 0.12900792 -0.13313314 0.16653724 -0.115436
0.5129858 0.07797755 -0.10884192 0.23551951 0.22161424 0.044639893 0.08762351 -0.08742513
-0.34097576 -0.2317791 0.24665217 -0.22063316 -0.11942143 0.15349333 -0.07612991 0.23767696
0.21313496 0.27218288 0.36163583 -0.29222113 0.23347151 0.040654853 -0.24949645 0.06870243
0.19987424 0.17378844 -0.010834592 0.12595963 0.14102548 -0.082861654 0.010560222 -0.14046118
0.41794947 -0.0153585235 -0.018235039 0.23248148 0.040765658 0.2128079 -0.17238446 0.086540334
0.09780947 -0.19650617 0.074835844 -0.18517233 0.30986142 -0.13678023 0.2861367 0.11782533
0.26825607 0.1047486 0.07119541 -0.18451975 -0.42457467 0.7804 0.174717 -0.1295209
0.20640866 0.21873158 0.23008467 -0.06820709 0.20000839 -0.19905634 0.12319967 -0.24294376
0.12346344 0.013364413 0.30029306 0.36475572 0.23218642 -0.21152885 0.18143201 0.39008686
-0.20560455 -0.09448316 -0.1835964 -0.09093409 -0.26016948 0.108233295 -0.0909432 0.06868592
00000000: 8978 703e 70a8 dc3d f880 8e3e 282b cabe
00000010: 6a44 a03e e1b5 b7bd 300b ddbd 2f4c 053d
00000020: 821a 3e3e 3aab e03d b165 1fbe 28c2 5b3e
00000030: 97e0 f03d e7eb 4dbd 6a27 2cbe c0d6 9e3d
00000040: aff8 003f bb8c 613d 471b 86be 6e70 143e
00000050: 8c40 4d3e bf1b 563d 3254 31bd ae47 89be
00000060: fe09 a93e 1118 39be dbcd cb3d 8092 5cbe
00000070: 3157 92be fc10 4e3e 39d3 393d c2a8 0a3e
00000080: fc8c f63d fbd5 8d3e ef9d eb3d 4460 e43d
00000090: b362 193e 05bb d53e 61ac 0d3e 36e2 4fbe
000000a0: 8535 ea3e c500 303e 8ccc 5a3e 4bf9 053d
000000b0: 3651 093e 4a02 dcbd 9982 153e a805 66be
000000c0: b5dd cd3e 0c3d a33e 9a14 bdbe edff b33e
000000d0: 8243 153e b644 50be 6e20 553d ea98 fb3d
000000e0: ce7b 22be ed71 2bbd 0478 22bd 1271 e1bd
000000f0: 83cd 5cbd bcbf 683e 8cf4 6bbe 7b50 543e
00000100: dd07 783e 4daa e23d c379 703e 91de a8bd
00000110: c193 663e 8e9e 30bd de62 7a3c d513 0cbe
00000120: 0e8c 5f3e fd10 113e c47f 813b c1b9 583e
00000130: 7cc1 a43d cd05 c3bd b386 d0bd e0c3 3b3e
00000140: 0f12 df3e 49a7 8b3d ae55 5abe 16c5 ba3d
00000150: a5e4 313e 35f2 683e f63a e53a 41b4 d5bc
00000160: 7fa7 603e b0cd 5dbe b412 983e b042 87be
00000170: 8b7c 07be baa8 9f3e a435 d93c b371 003e
00000180: 4316 0e3e 0e46 693e 0a63 e13d d61e 4f3e
00000190: 19a9 1f3e 9833 ff3e ad8d 213e 28ec 1ebe
000001a0: d459 d13e 932a 293e ff2d 5d3e 6086 edbb
000001b0: 77d5 a63d ad7b 1ebe dcea 2e3e f7b2 6cbe
000001c0: 13ba d33e 2a7c 903e 151f 003e daa6 523e
000001d0: b82e 3f3e 5768 44be 5c2e 123d 683d 603e
000001e0: 27d7 23be 9015 32be 73bb ca3d ce71 30be
000001f0: ac66 a7bd 5e97 443d 7e66 4abd 10f0 a33d
00000200: f0e4 27be e54d 0f3e 8f84 a23e 5d14 893c
00000210: a05e 9e3e 7b64 1c3e 9cf1 f9bc d7f1 203d
00000220: fd34 713e 1cbc 193e 45cc 28be 86e5 643e
00000230: c29f 543e d249 90be 5a6f b7be cece e03e
00000240: d191 9d3e 1b3c 06bf fff9 71be 3226 da3d
00000250: 2b82 b93d 0eb0 863e a468 47be 20c3 f13c
00000260: 6272 0f3f 1d68 42be 14ce 493e cb31 283e
00000270: 7f05 363e e170 793e cbb3 c9bd 1489 a3bb
00000280: 620a 3abd f586 3f3c 3113 773e a306 0f3f
00000290: 2783 9d3e 09cc a13e a15f 2a3e 0194 99bd
000002a0: ea33 883e a45d 473e 2a4f 6e3e c561 1d3e
000002b0: a71a 043e 0e54 08be bd88 2a3e b669 ecbd
000002c0: 0a53 033f b2b2 9f3d 83e8 debd 072c 713e
000002d0: d8ee 623e 52d8 363d f473 b33d f20b b3bd
000002e0: 6094 aebe 8057 6dbe 6392 7c3e a9ed 61be
000002f0: 3993 f4bd 5b2d 1d3e 00ea 9bbd 9761 733e
00000300: 0d40 5a3e 8e5b 8b3e 5528 b93e 029e 95be
00000310: 2813 6f3e b485 263d ff7b 7fbe dcb3 8c3d
00000320: d5ab 4c3e 99f5 313e 9383 31bc 90fb 003e
00000330: fc68 103e 5fb3 a9bd c804 2d3c 0ed5 0fbe
00000340: 79fd d53e 51a2 7bbc a661 95bc a00f 6e3e
00000350: e4f9 263d 50ea 593e 8d85 30be 0f3c b13d
00000360: 5550 c83d ea38 49be 8943 993d d19d 3dbe
00000370: 28a6 9e3e 1e10 0cbe 8280 923e 684e f13d
00000380: dc58 893e 6f86 d63d e6ce 913d bff2 3cbe
00000390: da61 d9be 4bc8 473f 03e9 323e 20a1 04be
000003a0: cb5c 533e 2cfb 5f3e 519b 6b3e 29b0 8bbd
000003b0: 00cf 4c3e 6dd5 4bbe 1c50 fc3d 40c6 78be
000003c0: 66da fc3d 69f6 5a3c 03c0 993e 43c1 ba3e
000003d0: 47c2 6d3e 059b 58be 50c9 393e 77b9 c73e
000003e0: 008a 52be 6380 c1bd b200 3cbe a73b babd
000003f0: ef34 85be 6ba9 dd3d 6e40 babd 34ab 8c3d

fc3.bias f4 [4]
0.31848297 0.2881742 0.1784814 0.16284075
00000000: 3310 a33e 928b 933e d4c3 363e babf 263e

state_value.weight f4 [1, 64]
-0.054447323 -0.09212187 0.006732762 -0.094791204 -0.0057646185 -0.017105967 -0.09679772 -0.056434557
0.054638714 -0.035835266 -0.11032523 0.101695165 -0.038971946 0.0150654465 0.100521564 0.062241465
-0.10103564 0.11041115 -0.034844175 0.031886265 0.05564849 0.043631062 0.08543804 -0.05641015
0.09289703 0.07945952 -0.10962953 -0.046604335 0.108024165 -0.092778236 -0.11310549 0.07719906
0.044047132 0.013705254 0.09967773 0.006155029 0.12188414 -0.08295171 -0.10742861 -0.027182668
0.12152025 -0.106874645 0.051569834 0.032007486 -0.05293022 -0.10251227 0.052341044 0.046877548
-0.003269419 0.04939127 0.06835668 -0.08804001 -0.10805328 -0.020785928 -0.017989367 -0.048013568
0.032899693 -0.09592314 0.121463805 -0.025154322 -0.0698238 -0.019973189 -0.09898007 -0.10816315
00000000: 2804 5fbd 64aa bcbd 809e dc3b e421 c2bd
00000010: 20e5 bcbb d021 8cbc e23d c6bd ec27 67bd
00000020: d8cc 5f3d 00c8 12bd 32f2 e1bd 8e45 d03d
00000030: 0ca1 1fbd 10d5 763c 40de cd3d e8f0 7e3d
00000040: c6eb cebd 3e1f e23d c4b8 0ebd 2c9b 023d
00000050: acef 633d 7cb6 323d 24fa ae3d 540e 67bd
00000060: cc40 be3d acbb a23d 7285 e0bd 30e4 3ebd
00000070: c63b dd3d 8402 bebd daa3 e7bd 8a1a 9e3d
00000080: c46a 343d 008c 603c d623 cc3d 20b0 c93b
00000090: 649e f93d 96e2 a9bd 8803 dcbd 30ae debc
000000a0: 9cdf f83d 18e1 dabd e43a 533d 481a 033d
000000b0: 5ccd 58bd f4f1 d1bd 9063 563d ac02 403d
000000c0: c043 56bb 804e 4a3d 96fe 8b3d 524e b4bd
000000d0: 0a4b ddbd 4047 aabc 705e 93bc e0a9 44bd
000000e0: d4c1 063d 5a73 c4bd 04c2 f83d 7010 cebc
000000f0: c8ff 8ebd d09e a3bc 10b6 cabd a484 ddbd
